Neural Network Tools for STM32AI v1.7.0 (STM.ai v8.0.0-19389)
Created date          : 2023-06-25 20:07:59
Parameters            : generate --name face_detection -m C:/Users/hubert/STM32CubeIDE/workspace_1.10.0/camera_bsp_driver/quantized_model.tflite --type tflite --compression none --verbosity 1 --workspace C:\Users\hubert\AppData\Local\Temp\mxAI_workspace27792451801070011285900910263010960 --output C:\Users\hubert\.stm32cubemx\network_output --allocate-inputs --series stm32h7 --allocate-outputs

Exec/report summary (generate)
----------------------------------------------------------------------------------------------------------------
model file         :   C:\Users\hubert\STM32CubeIDE\workspace_1.10.0\camera_bsp_driver\quantized_model.tflite   
type               :   tflite                                                                                   
c_name             :   face_detection                                                                           
compression        :   none                                                                                     
options            :   allocate-inputs, allocate-outputs                                                        
optimization       :   balanced                                                                                 
target/series      :   stm32h7                                                                                  
workspace dir      :   C:\Users\hubert\AppData\Local\Temp\mxAI_workspace27792451801070011285900910263010960     
output dir         :   C:\Users\hubert\.stm32cubemx\network_output                                              
model_fmt          :   ss/sa per-channel                                                                        
model_name         :   quantized_model                                                                          
model_hash         :   ff578977175cdf34fbf6582ccff9a583                                                         
params #           :   436,590 items (438.28 KiB)                                                               
----------------------------------------------------------------------------------------------------------------
input 1/1          :   'serving_default_input_10' (domain:activations/**default**)                              
                   :   110592 items, 108.00 KiB, ai_u8, s=0.00784314, zp=127, (1,192,192,3)                     
output 1/1         :   'conversion_151' (domain:activations/**default**)                                        
                   :   38300 items, 149.61 KiB, ai_float, float, (1,3830,1,10)                                  
macc               :   40,573,698                                                                               
weights (ro)       :   448,800 B (438.28 KiB) (1 segment) / -1,297,560(-74.3%) vs float model                   
activations (rw)   :   200,292 B (195.60 KiB) (1 segment) *                                                     
ram (total)        :   200,292 B (195.60 KiB) = 200,292 + 0 + 0                                                 
----------------------------------------------------------------------------------------------------------------
(*) 'input'/'output' buffers can be used from the activations buffer

Model name - quantized_model ['serving_default_input_10'] ['conversion_151']
------ -------------------------------------------- ----------------------- --------------- ----------- -------------------------- --- ------------------ ------------------- -------------------------------------------- 
m_id   layer (type,original)                        oshape                  param/size             macc               connected to   | c_size             c_macc              c_type                                       
------ -------------------------------------------- ----------------------- --------------- ----------- -------------------------- --- ------------------ ------------------- -------------------------------------------- 
0      serving_default_input_10 (Input, )           [b:1,h:192,w:192,c:3]                                                            |                    +221,184(+100.0%)   converter_oi8[1]                             
       conversion_0 (Conversion, QUANTIZE)          [b:1,h:192,w:192,c:3]                       221,184   serving_default_input_10   |                    -221,184(-100.0%)   
------ -------------------------------------------- ----------------------- --------------- ----------- -------------------------- --- ------------------ ------------------- -------------------------------------------- 
1      conv2d_1 (Conv2D, CONV_2D)                   [b:1,h:96,w:96,c:8]     224/248           1,990,664               conversion_0   |                                        optimized_conv2d_oi8[2]                      
       nl_1_nl (Nonlinearity, CONV_2D)              [b:1,h:96,w:96,c:8]                          73,728                   conv2d_1   |                    -73,728(-100.0%)    
------ -------------------------------------------- ----------------------- --------------- ----------- -------------------------- --- ------------------ ------------------- -------------------------------------------- 
2      conv2d_2 (Conv2D, DEPTHWISE_CONV_2D)         [b:1,h:96,w:96,c:8]     80/104              663,560                    nl_1_nl   |                                        pad_oi8/conv2d_oi8[3, 4]                     
       nl_2_nl (Nonlinearity, DEPTHWISE_CONV_2D)    [b:1,h:96,w:96,c:8]                          73,728                   conv2d_2   |                    -73,728(-100.0%)    
------ -------------------------------------------- ----------------------- --------------- ----------- -------------------------- --- ------------------ ------------------- -------------------------------------------- 
3      conv2d_3 (Conv2D, CONV_2D)                   [b:1,h:96,w:96,c:16]    144/192           1,179,664                    nl_2_nl   |                                        conv2d_oi8[5]                                
       nl_3_nl (Nonlinearity, CONV_2D)              [b:1,h:96,w:96,c:16]                        147,456                   conv2d_3   |                    -147,456(-100.0%)   
------ -------------------------------------------- ----------------------- --------------- ----------- -------------------------- --- ------------------ ------------------- -------------------------------------------- 
4      pad_4 (Pad, PAD)                             [b:1,h:97,w:97,c:16]                                                   nl_3_nl   | +208(+100.0%)      +331,792(+100.0%)   conv2d_oi8[7]                                
------ -------------------------------------------- ----------------------- --------------- ----------- -------------------------- --- ------------------ ------------------- -------------------------------------------- 
5      conv2d_5 (Conv2D, DEPTHWISE_CONV_2D)         [b:1,h:48,w:48,c:16]    160/208             331,792                      pad_4   | -208(-100.0%)      -331,792(-100.0%)   pad_oi8[6]                                   
       nl_5_nl (Nonlinearity, DEPTHWISE_CONV_2D)    [b:1,h:48,w:48,c:16]                         36,864                   conv2d_5   |                    -36,864(-100.0%)    
------ -------------------------------------------- ----------------------- --------------- ----------- -------------------------- --- ------------------ ------------------- -------------------------------------------- 
6      conv2d_6 (Conv2D, CONV_2D)                   [b:1,h:48,w:48,c:32]    544/640           1,179,680                    nl_5_nl   |                                        conv2d_oi8[8]                                
       nl_6_nl (Nonlinearity, CONV_2D)              [b:1,h:48,w:48,c:32]                         73,728                   conv2d_6   |                    -73,728(-100.0%)    
------ -------------------------------------------- ----------------------- --------------- ----------- -------------------------- --- ------------------ ------------------- -------------------------------------------- 
7      conv2d_7 (Conv2D, DEPTHWISE_CONV_2D)         [b:1,h:48,w:48,c:32]    320/416             663,584                    nl_6_nl   |                                        pad_oi8/conv2d_oi8[9, 10]                    
       nl_7_nl (Nonlinearity, DEPTHWISE_CONV_2D)    [b:1,h:48,w:48,c:32]                         73,728                   conv2d_7   |                    -73,728(-100.0%)    
------ -------------------------------------------- ----------------------- --------------- ----------- -------------------------- --- ------------------ ------------------- -------------------------------------------- 
8      conv2d_8 (Conv2D, CONV_2D)                   [b:1,h:48,w:48,c:32]    1,056/1,152       2,359,328                    nl_7_nl   |                                        conv2d_oi8[11]                               
       nl_8_nl (Nonlinearity, CONV_2D)              [b:1,h:48,w:48,c:32]                         73,728                   conv2d_8   |                    -73,728(-100.0%)    
------ -------------------------------------------- ----------------------- --------------- ----------- -------------------------- --- ------------------ ------------------- -------------------------------------------- 
9      pad_9 (Pad, PAD)                             [b:1,h:49,w:49,c:32]                                                   nl_8_nl   | +416(+100.0%)      +165,920(+100.0%)   conv2d_oi8[13]                               
------ -------------------------------------------- ----------------------- --------------- ----------- -------------------------- --- ------------------ ------------------- -------------------------------------------- 
10     conv2d_10 (Conv2D, DEPTHWISE_CONV_2D)        [b:1,h:24,w:24,c:32]    320/416             165,920                      pad_9   | -416(-100.0%)      -165,920(-100.0%)   pad_oi8[12]                                  
       nl_10_nl (Nonlinearity, DEPTHWISE_CONV_2D)   [b:1,h:24,w:24,c:32]                         18,432                  conv2d_10   |                    -18,432(-100.0%)    
------ -------------------------------------------- ----------------------- --------------- ----------- -------------------------- --- ------------------ ------------------- -------------------------------------------- 
11     conv2d_11 (Conv2D, CONV_2D)                  [b:1,h:24,w:24,c:64]    2,112/2,304       1,179,712                   nl_10_nl   |                                        conv2d_oi8[14]                               
       nl_11_nl (Nonlinearity, CONV_2D)             [b:1,h:24,w:24,c:64]                         36,864                  conv2d_11   |                    -36,864(-100.0%)    
------ -------------------------------------------- ----------------------- --------------- ----------- -------------------------- --- ------------------ ------------------- -------------------------------------------- 
12     conv2d_12 (Conv2D, DEPTHWISE_CONV_2D)        [b:1,h:24,w:24,c:64]    640/832             331,840                   nl_11_nl   |                                        pad_oi8/conv2d_oi8[15, 16]                   
       nl_12_nl (Nonlinearity, DEPTHWISE_CONV_2D)   [b:1,h:24,w:24,c:64]                         36,864                  conv2d_12   |                    -36,864(-100.0%)    
------ -------------------------------------------- ----------------------- --------------- ----------- -------------------------- --- ------------------ ------------------- -------------------------------------------- 
13     conv2d_13 (Conv2D, CONV_2D)                  [b:1,h:24,w:24,c:64]    4,160/4,352       2,359,360                   nl_12_nl   |                                        conv2d_oi8[17]                               
       nl_13_nl (Nonlinearity, CONV_2D)             [b:1,h:24,w:24,c:64]                         36,864                  conv2d_13   |                    -36,864(-100.0%)    
------ -------------------------------------------- ----------------------- --------------- ----------- -------------------------- --- ------------------ ------------------- -------------------------------------------- 
14     conv2d_14 (Conv2D, CONV_2D)                  [b:1,h:24,w:24,c:32]    2,080/2,176       1,179,680                   nl_13_nl   |                                        conv2d_oi8[83]                               
------ -------------------------------------------- ----------------------- --------------- ----------- -------------------------- --- ------------------ ------------------- -------------------------------------------- 
15     pad_15 (Pad, PAD)                            [b:1,h:25,w:25,c:64]                                                  nl_13_nl   | +832(+100.0%)      +83,008(+100.0%)    conv2d_oi8[19]                               
------ -------------------------------------------- ----------------------- --------------- ----------- -------------------------- --- ------------------ ------------------- -------------------------------------------- 
16     conv2d_16 (Conv2D, DEPTHWISE_CONV_2D)        [b:1,h:12,w:12,c:64]    640/832              83,008                     pad_15   | -832(-100.0%)      -83,008(-100.0%)    pad_oi8[18]                                  
       nl_16_nl (Nonlinearity, DEPTHWISE_CONV_2D)   [b:1,h:12,w:12,c:64]                          9,216                  conv2d_16   |                    -9,216(-100.0%)     
------ -------------------------------------------- ----------------------- --------------- ----------- -------------------------- --- ------------------ ------------------- -------------------------------------------- 
17     conv2d_17 (Conv2D, CONV_2D)                  [b:1,h:12,w:12,c:128]   8,320/8,704       1,179,776                   nl_16_nl   |                                        conv2d_oi8[20]                               
       nl_17_nl (Nonlinearity, CONV_2D)             [b:1,h:12,w:12,c:128]                        18,432                  conv2d_17   |                    -18,432(-100.0%)    
------ -------------------------------------------- ----------------------- --------------- ----------- -------------------------- --- ------------------ ------------------- -------------------------------------------- 
18     conv2d_18 (Conv2D, DEPTHWISE_CONV_2D)        [b:1,h:12,w:12,c:128]   1,280/1,664         166,016                   nl_17_nl   |                                        pad_oi8/conv2d_oi8[21, 22]                   
       nl_18_nl (Nonlinearity, DEPTHWISE_CONV_2D)   [b:1,h:12,w:12,c:128]                        18,432                  conv2d_18   |                    -18,432(-100.0%)    
------ -------------------------------------------- ----------------------- --------------- ----------- -------------------------- --- ------------------ ------------------- -------------------------------------------- 
19     conv2d_19 (Conv2D, CONV_2D)                  [b:1,h:12,w:12,c:128]   16,512/16,896     2,359,424                   nl_18_nl   |                                        conv2d_oi8[23]                               
       nl_19_nl (Nonlinearity, CONV_2D)             [b:1,h:12,w:12,c:128]                        18,432                  conv2d_19   |                    -18,432(-100.0%)    
------ -------------------------------------------- ----------------------- --------------- ----------- -------------------------- --- ------------------ ------------------- -------------------------------------------- 
20     conv2d_20 (Conv2D, DEPTHWISE_CONV_2D)        [b:1,h:12,w:12,c:128]   1,280/1,664         166,016                   nl_19_nl   |                                        pad_oi8/conv2d_oi8[24, 25]                   
       nl_20_nl (Nonlinearity, DEPTHWISE_CONV_2D)   [b:1,h:12,w:12,c:128]                        18,432                  conv2d_20   |                    -18,432(-100.0%)    
------ -------------------------------------------- ----------------------- --------------- ----------- -------------------------- --- ------------------ ------------------- -------------------------------------------- 
21     conv2d_21 (Conv2D, CONV_2D)                  [b:1,h:12,w:12,c:128]   16,512/16,896     2,359,424                   nl_20_nl   |                                        conv2d_oi8[26]                               
       nl_21_nl (Nonlinearity, CONV_2D)             [b:1,h:12,w:12,c:128]                        18,432                  conv2d_21   |                    -18,432(-100.0%)    
------ -------------------------------------------- ----------------------- --------------- ----------- -------------------------- --- ------------------ ------------------- -------------------------------------------- 
22     conv2d_22 (Conv2D, DEPTHWISE_CONV_2D)        [b:1,h:12,w:12,c:128]   1,280/1,664         166,016                   nl_21_nl   |                                        pad_oi8/conv2d_oi8[27, 28]                   
       nl_22_nl (Nonlinearity, DEPTHWISE_CONV_2D)   [b:1,h:12,w:12,c:128]                        18,432                  conv2d_22   |                    -18,432(-100.0%)    
------ -------------------------------------------- ----------------------- --------------- ----------- -------------------------- --- ------------------ ------------------- -------------------------------------------- 
23     conv2d_23 (Conv2D, CONV_2D)                  [b:1,h:12,w:12,c:128]   16,512/16,896     2,359,424                   nl_22_nl   |                                        conv2d_oi8[29]                               
       nl_23_nl (Nonlinearity, CONV_2D)             [b:1,h:12,w:12,c:128]                        18,432                  conv2d_23   |                    -18,432(-100.0%)    
------ -------------------------------------------- ----------------------- --------------- ----------- -------------------------- --- ------------------ ------------------- -------------------------------------------- 
24     conv2d_24 (Conv2D, DEPTHWISE_CONV_2D)        [b:1,h:12,w:12,c:128]   1,280/1,664         166,016                   nl_23_nl   |                                        pad_oi8/conv2d_oi8[30, 31]                   
       nl_24_nl (Nonlinearity, DEPTHWISE_CONV_2D)   [b:1,h:12,w:12,c:128]                        18,432                  conv2d_24   |                    -18,432(-100.0%)    
------ -------------------------------------------- ----------------------- --------------- ----------- -------------------------- --- ------------------ ------------------- -------------------------------------------- 
25     conv2d_25 (Conv2D, CONV_2D)                  [b:1,h:12,w:12,c:128]   16,512/16,896     2,359,424                   nl_24_nl   |                                        conv2d_oi8[32]                               
       nl_25_nl (Nonlinearity, CONV_2D)             [b:1,h:12,w:12,c:128]                        18,432                  conv2d_25   |                    -18,432(-100.0%)    
------ -------------------------------------------- ----------------------- --------------- ----------- -------------------------- --- ------------------ ------------------- -------------------------------------------- 
26     conv2d_26 (Conv2D, DEPTHWISE_CONV_2D)        [b:1,h:12,w:12,c:128]   1,280/1,664         166,016                   nl_25_nl   |                                        pad_oi8/conv2d_oi8[33, 34]                   
       nl_26_nl (Nonlinearity, DEPTHWISE_CONV_2D)   [b:1,h:12,w:12,c:128]                        18,432                  conv2d_26   |                    -18,432(-100.0%)    
------ -------------------------------------------- ----------------------- --------------- ----------- -------------------------- --- ------------------ ------------------- -------------------------------------------- 
27     conv2d_27 (Conv2D, CONV_2D)                  [b:1,h:12,w:12,c:128]   16,512/16,896     2,359,424                   nl_26_nl   |                                        conv2d_oi8[35]                               
       nl_27_nl (Nonlinearity, CONV_2D)             [b:1,h:12,w:12,c:128]                        18,432                  conv2d_27   |                    -18,432(-100.0%)    
------ -------------------------------------------- ----------------------- --------------- ----------- -------------------------- --- ------------------ ------------------- -------------------------------------------- 
28     conv2d_28 (Conv2D, CONV_2D)                  [b:1,h:12,w:12,c:32]    4,128/4,224         589,856                   nl_27_nl   |                                        conv2d_oi8[74]                               
------ -------------------------------------------- ----------------------- --------------- ----------- -------------------------- --- ------------------ ------------------- -------------------------------------------- 
29     pad_29 (Pad, PAD)                            [b:1,h:13,w:13,c:128]                                                 nl_27_nl   | +1,664(+100.0%)    +41,600(+100.0%)    conv2d_oi8[37]                               
------ -------------------------------------------- ----------------------- --------------- ----------- -------------------------- --- ------------------ ------------------- -------------------------------------------- 
30     conv2d_30 (Conv2D, DEPTHWISE_CONV_2D)        [b:1,h:6,w:6,c:128]     1,280/1,664          41,600                     pad_29   | -1,664(-100.0%)    -41,600(-100.0%)    pad_oi8[36]                                  
       nl_30_nl (Nonlinearity, DEPTHWISE_CONV_2D)   [b:1,h:6,w:6,c:128]                           4,608                  conv2d_30   |                    -4,608(-100.0%)     
------ -------------------------------------------- ----------------------- --------------- ----------- -------------------------- --- ------------------ ------------------- -------------------------------------------- 
31     conv2d_31 (Conv2D, CONV_2D)                  [b:1,h:6,w:6,c:256]     33,024/33,792     1,179,904                   nl_30_nl   |                                        conv2d_oi8[38]                               
       nl_31_nl (Nonlinearity, CONV_2D)             [b:1,h:6,w:6,c:256]                           9,216                  conv2d_31   |                    -9,216(-100.0%)     
------ -------------------------------------------- ----------------------- --------------- ----------- -------------------------- --- ------------------ ------------------- -------------------------------------------- 
32     conv2d_32 (Conv2D, DEPTHWISE_CONV_2D)        [b:1,h:6,w:6,c:256]     2,560/3,328          83,200                   nl_31_nl   |                                        pad_oi8/conv2d_oi8[39, 40]                   
       nl_32_nl (Nonlinearity, DEPTHWISE_CONV_2D)   [b:1,h:6,w:6,c:256]                           9,216                  conv2d_32   |                    -9,216(-100.0%)     
------ -------------------------------------------- ----------------------- --------------- ----------- -------------------------- --- ------------------ ------------------- -------------------------------------------- 
33     conv2d_33 (Conv2D, CONV_2D)                  [b:1,h:6,w:6,c:256]     65,792/66,560     2,359,552                   nl_32_nl   |                                        conv2d_oi8[41]                               
       nl_33_nl (Nonlinearity, CONV_2D)             [b:1,h:6,w:6,c:256]                           9,216                  conv2d_33   |                    -9,216(-100.0%)     
------ -------------------------------------------- ----------------------- --------------- ----------- -------------------------- --- ------------------ ------------------- -------------------------------------------- 
34     conv2d_34 (Conv2D, CONV_2D)                  [b:1,h:6,w:6,c:32]      8,224/8,320         294,944                   nl_33_nl   |                                        conv2d_oi8[65]                               
------ -------------------------------------------- ----------------------- --------------- ----------- -------------------------- --- ------------------ ------------------- -------------------------------------------- 
35     conv2d_35 (Conv2D, DEPTHWISE_CONV_2D)        [b:1,h:3,w:3,c:256]     2,560/3,328          20,992                   nl_33_nl   |                                        pad_oi8/conv2d_oi8[42, 43]                   
       nl_35_nl (Nonlinearity, DEPTHWISE_CONV_2D)   [b:1,h:3,w:3,c:256]                           2,304                  conv2d_35   |                    -2,304(-100.0%)     
------ -------------------------------------------- ----------------------- --------------- ----------- -------------------------- --- ------------------ ------------------- -------------------------------------------- 
36     conv2d_36 (Conv2D, CONV_2D)                  [b:1,h:3,w:3,c:256]     65,792/66,560       590,080                   nl_35_nl   |                                        conv2d_oi8[44]                               
       nl_36_nl (Nonlinearity, CONV_2D)             [b:1,h:3,w:3,c:256]                           2,304                  conv2d_36   |                    -2,304(-100.0%)     
------ -------------------------------------------- ----------------------- --------------- ----------- -------------------------- --- ------------------ ------------------- -------------------------------------------- 
37     conv2d_37 (Conv2D, DEPTHWISE_CONV_2D)        [b:1,h:3,w:3,c:256]     2,560/3,328          20,992                   nl_36_nl   |                                        pad_oi8/conv2d_oi8[45, 46]                   
       nl_37_nl (Nonlinearity, DEPTHWISE_CONV_2D)   [b:1,h:3,w:3,c:256]                           2,304                  conv2d_37   |                    -2,304(-100.0%)     
------ -------------------------------------------- ----------------------- --------------- ----------- -------------------------- --- ------------------ ------------------- -------------------------------------------- 
38     conv2d_38 (Conv2D, CONV_2D)                  [b:1,h:3,w:3,c:256]     65,792/66,560       590,080                   nl_37_nl   |                                        conv2d_oi8[47]                               
       nl_38_nl (Nonlinearity, CONV_2D)             [b:1,h:3,w:3,c:256]                           2,304                  conv2d_38   |                    -2,304(-100.0%)     
------ -------------------------------------------- ----------------------- --------------- ----------- -------------------------- --- ------------------ ------------------- -------------------------------------------- 
39     conv2d_39 (Conv2D, CONV_2D)                  [b:1,h:3,w:3,c:32]      8,224/8,320          73,760                   nl_38_nl   |                                        conv2d_oi8[56]                               
------ -------------------------------------------- ----------------------- --------------- ----------- -------------------------- --- ------------------ ------------------- -------------------------------------------- 
40     pool_40 (Pool, MEAN)                         [b:1,h:1,w:1,c:256]                           2,304                   nl_38_nl   |                                        pool_oi8[48]                                 
       reshape_40_reshape (Reshape, MEAN)           [b:1,c:256]                                                            pool_40   |                                        
------ -------------------------------------------- ----------------------- --------------- ----------- -------------------------- --- ------------------ ------------------- -------------------------------------------- 
44     reshape_44 (Reshape, RESHAPE)                [b:1,h:1,w:1,c:256]                                         reshape_40_reshape   |                                        
------ -------------------------------------------- ----------------------- --------------- ----------- -------------------------- --- ------------------ ------------------- -------------------------------------------- 
45     conv2d_45 (Conv2D, CONV_2D)                  [b:1,h:1,w:1,c:32]      8,224/8,320           8,224                 reshape_44   |                                        conv2d_oi8[49]                               
------ -------------------------------------------- ----------------------- --------------- ----------- -------------------------- --- ------------------ ------------------- -------------------------------------------- 
46     conv2d_46 (Conv2D, CONV_2D)                  [b:1,h:1,w:1,c:10]      2,890/2,920           2,890                  conv2d_45   |                                        pad_oi8/conv2d_oi8[50, 51]                   
------ -------------------------------------------- ----------------------- --------------- ----------- -------------------------- --- ------------------ ------------------- -------------------------------------------- 
50     reshape_50 (Reshape, RESHAPE)                [b:1,h:5,c:2]                                                        conv2d_46   |                                        
------ -------------------------------------------- ----------------------- --------------- ----------- -------------------------- --- ------------------ ------------------- -------------------------------------------- 
51     conv2d_51 (Conv2D, CONV_2D)                  [b:1,h:1,w:1,c:20]      5,780/5,840           5,780                  conv2d_45   |                                        pad_oi8/conv2d_oi8[52, 53]                   
------ -------------------------------------------- ----------------------- --------------- ----------- -------------------------- --- ------------------ ------------------- -------------------------------------------- 
55     reshape_55 (Reshape, RESHAPE)                [b:1,h:5,c:4]                                                        conv2d_51   |                                        
------ -------------------------------------------- ----------------------- --------------- ----------- -------------------------- --- ------------------ ------------------- -------------------------------------------- 
63     reshape_63_const (Placeholder, RESHAPE)      [b:1,h:5,c:4]           20/20                                                    | -20(-100.0%)                           
------ -------------------------------------------- ----------------------- --------------- ----------- -------------------------- --- ------------------ ------------------- -------------------------------------------- 
64     tile_64 (Tile, RESIZE_BILINEAR)              [b:1,h:2,w:2,c:32]                                                   conv2d_45   |                                        tile_oi8[54]                                 
------ -------------------------------------------- ----------------------- --------------- ----------- -------------------------- --- ------------------ ------------------- -------------------------------------------- 
65     pad_65 (Pad, PAD)                            [b:1,h:3,w:3,c:32]                                                     tile_64   |                                        pad_oi8[55]                                  
------ -------------------------------------------- ----------------------- --------------- ----------- -------------------------- --- ------------------ ------------------- -------------------------------------------- 
66     eltwise_66 (Eltwise, ADD)                    [b:1,h:3,w:3,c:32]                              288                  conv2d_39   |                    +576(+200.0%)       eltwise_integer_oi8/converter_of32[57, 58]   
                                                                                                                            pad_65   | 
------ -------------------------------------------- ----------------------- --------------- ----------- -------------------------- --- ------------------ ------------------- -------------------------------------------- 
67     conv2d_67 (Conv2D, CONV_2D)                  [b:1,h:3,w:3,c:20]      5,780/5,840          51,860                 eltwise_66   |                                        pad_oi8/conv2d_oi8[61, 62]                   
------ -------------------------------------------- ----------------------- --------------- ----------- -------------------------- --- ------------------ ------------------- -------------------------------------------- 
71     reshape_71 (Reshape, RESHAPE)                [b:1,h:45,c:4]                                                       conv2d_67   |                                        
------ -------------------------------------------- ----------------------- --------------- ----------- -------------------------- --- ------------------ ------------------- -------------------------------------------- 
72     conv2d_72 (Conv2D, CONV_2D)                  [b:1,h:3,w:3,c:10]      2,890/2,920          25,930                 eltwise_66   |                                        pad_oi8/conv2d_oi8[63, 64]                   
------ -------------------------------------------- ----------------------- --------------- ----------- -------------------------- --- ------------------ ------------------- -------------------------------------------- 
76     reshape_76 (Reshape, RESHAPE)                [b:1,h:45,c:2]                                                       conv2d_72   |                                        
------ -------------------------------------------- ----------------------- --------------- ----------- -------------------------- --- ------------------ ------------------- -------------------------------------------- 
84     reshape_84_const (Placeholder, RESHAPE)      [b:1,h:45,c:4]          180/180                                                  | -180(-100.0%)                          
------ -------------------------------------------- ----------------------- --------------- ----------- -------------------------- --- ------------------ ------------------- -------------------------------------------- 
85     upsample_85 (Upsample, RESIZE_BILINEAR)      [b:1,h:6,w:6,c:32]                            4,608                 eltwise_66   |                    +2,304(+50.0%)      upsample_of32/converter_oi8[59, 60]          
------ -------------------------------------------- ----------------------- --------------- ----------- -------------------------- --- ------------------ ------------------- -------------------------------------------- 
86     eltwise_86 (Eltwise, ADD)                    [b:1,h:6,w:6,c:32]                            1,152                  conv2d_34   |                    +2,304(+200.0%)     eltwise_integer_oi8/converter_of32[66, 67]   
                                                                                                                       upsample_85   | 
------ -------------------------------------------- ----------------------- --------------- ----------- -------------------------- --- ------------------ ------------------- -------------------------------------------- 
87     conv2d_87 (Conv2D, CONV_2D)                  [b:1,h:6,w:6,c:10]      2,890/2,920         103,690                 eltwise_86   |                                        pad_oi8/conv2d_oi8[70, 71]                   
------ -------------------------------------------- ----------------------- --------------- ----------- -------------------------- --- ------------------ ------------------- -------------------------------------------- 
91     reshape_91 (Reshape, RESHAPE)                [b:1,h:180,c:2]                                                      conv2d_87   |                                        
------ -------------------------------------------- ----------------------- --------------- ----------- -------------------------- --- ------------------ ------------------- -------------------------------------------- 
92     conv2d_92 (Conv2D, CONV_2D)                  [b:1,h:6,w:6,c:20]      5,780/5,840         207,380                 eltwise_86   |                                        pad_oi8/conv2d_oi8[72, 73]                   
------ -------------------------------------------- ----------------------- --------------- ----------- -------------------------- --- ------------------ ------------------- -------------------------------------------- 
96     reshape_96 (Reshape, RESHAPE)                [b:1,h:180,c:4]                                                      conv2d_92   |                                        
------ -------------------------------------------- ----------------------- --------------- ----------- -------------------------- --- ------------------ ------------------- -------------------------------------------- 
104    reshape_104_const (Placeholder, RESHAPE)     [b:1,h:180,c:4]         720/720                                                  | -720(-100.0%)                          
------ -------------------------------------------- ----------------------- --------------- ----------- -------------------------- --- ------------------ ------------------- -------------------------------------------- 
105    upsample_105 (Upsample, RESIZE_BILINEAR)     [b:1,h:12,w:12,c:32]                         18,432                 eltwise_86   |                    +9,216(+50.0%)      upsample_of32/converter_oi8[68, 69]          
------ -------------------------------------------- ----------------------- --------------- ----------- -------------------------- --- ------------------ ------------------- -------------------------------------------- 
106    eltwise_106 (Eltwise, ADD)                   [b:1,h:12,w:12,c:32]                          4,608                  conv2d_28   |                    +9,216(+200.0%)     eltwise_integer_oi8/converter_of32[75, 76]   
                                                                                                                      upsample_105   | 
------ -------------------------------------------- ----------------------- --------------- ----------- -------------------------- --- ------------------ ------------------- -------------------------------------------- 
107    conv2d_107 (Conv2D, CONV_2D)                 [b:1,h:12,w:12,c:10]    2,890/2,920         414,730                eltwise_106   |                                        pad_oi8/conv2d_oi8[79, 80]                   
------ -------------------------------------------- ----------------------- --------------- ----------- -------------------------- --- ------------------ ------------------- -------------------------------------------- 
111    reshape_111 (Reshape, RESHAPE)               [b:1,h:720,c:2]                                                     conv2d_107   |                                        
------ -------------------------------------------- ----------------------- --------------- ----------- -------------------------- --- ------------------ ------------------- -------------------------------------------- 
112    conv2d_112 (Conv2D, CONV_2D)                 [b:1,h:12,w:12,c:20]    5,780/5,840         829,460                eltwise_106   |                                        pad_oi8/conv2d_oi8[81, 82]                   
------ -------------------------------------------- ----------------------- --------------- ----------- -------------------------- --- ------------------ ------------------- -------------------------------------------- 
116    reshape_116 (Reshape, RESHAPE)               [b:1,h:720,c:4]                                                     conv2d_112   |                                        
------ -------------------------------------------- ----------------------- --------------- ----------- -------------------------- --- ------------------ ------------------- -------------------------------------------- 
124    reshape_124_const (Placeholder, RESHAPE)     [b:1,h:720,c:4]         2,880/2,880                                              | -2,880(-100.0%)                        
------ -------------------------------------------- ----------------------- --------------- ----------- -------------------------- --- ------------------ ------------------- -------------------------------------------- 
125    upsample_125 (Upsample, RESIZE_BILINEAR)     [b:1,h:24,w:24,c:32]                         73,728                eltwise_106   |                    +36,864(+50.0%)     upsample_of32/converter_oi8[77, 78]          
------ -------------------------------------------- ----------------------- --------------- ----------- -------------------------- --- ------------------ ------------------- -------------------------------------------- 
126    eltwise_126 (Eltwise, ADD)                   [b:1,h:24,w:24,c:32]                         18,432                  conv2d_14   |                                        eltwise_integer_oi8[84]                      
                                                                                                                      upsample_125   | 
------ -------------------------------------------- ----------------------- --------------- ----------- -------------------------- --- ------------------ ------------------- -------------------------------------------- 
127    conv2d_127 (Conv2D, CONV_2D)                 [b:1,h:24,w:24,c:10]    2,890/2,920       1,658,890                eltwise_126   |                                        pad_oi8/conv2d_oi8[85, 86]                   
------ -------------------------------------------- ----------------------- --------------- ----------- -------------------------- --- ------------------ ------------------- -------------------------------------------- 
131    reshape_131 (Reshape, RESHAPE)               [b:1,h:2880,c:2]                                                    conv2d_127   |                                        
------ -------------------------------------------- ----------------------- --------------- ----------- -------------------------- --- ------------------ ------------------- -------------------------------------------- 
132    concat_132 (Concat, CONCATENATION)           [b:1,h:3830,c:2]                                                   reshape_131   |                    +15,320(+100.0%)    concat_oi8/converter_of32[87, 88]            
                                                                                                                       reshape_111   | 
                                                                                                                        reshape_91   | 
                                                                                                                        reshape_76   | 
                                                                                                                        reshape_50   | 
------ -------------------------------------------- ----------------------- --------------- ----------- -------------------------- --- ------------------ ------------------- -------------------------------------------- 
133    nl_133 (Nonlinearity, SOFTMAX)               [b:1,h:3830,c:2]                            114,900                 concat_132   |                    +15,320(+13.3%)     nl_of32/converter_oi8[89, 90]                
------ -------------------------------------------- ----------------------- --------------- ----------- -------------------------- --- ------------------ ------------------- -------------------------------------------- 
134    conversion_134 (Conversion, QUANTIZE)        [b:1,h:3830,c:2]                             15,320                     nl_133   |                    -15,320(-100.0%)    
------ -------------------------------------------- ----------------------- --------------- ----------- -------------------------- --- ------------------ ------------------- -------------------------------------------- 
135    conv2d_135 (Conv2D, CONV_2D)                 [b:1,h:24,w:24,c:20]    5,780/5,840       3,317,780                eltwise_126   |                                        pad_oi8/conv2d_oi8[91, 92]                   
------ -------------------------------------------- ----------------------- --------------- ----------- -------------------------- --- ------------------ ------------------- -------------------------------------------- 
139    reshape_139 (Reshape, RESHAPE)               [b:1,h:2880,c:4]                                                    conv2d_135   |                                        
------ -------------------------------------------- ----------------------- --------------- ----------- -------------------------- --- ------------------ ------------------- -------------------------------------------- 
140    concat_140 (Concat, CONCATENATION)           [b:1,h:3830,c:4]                                                   reshape_139   |                                        concat_oi8[93]                               
                                                                                                                       reshape_116   | 
                                                                                                                        reshape_96   | 
                                                                                                                        reshape_71   | 
                                                                                                                        reshape_55   | 
------ -------------------------------------------- ----------------------- --------------- ----------- -------------------------- --- ------------------ ------------------- -------------------------------------------- 
148    reshape_148_const (Placeholder, RESHAPE)     [b:1,h:2880,c:4]        11,520/11,520                                            | -11,520(-100.0%)                       
------ -------------------------------------------- ----------------------- --------------- ----------- -------------------------- --- ------------------ ------------------- -------------------------------------------- 
149    concat_149 (Concat, CONCATENATION)           [b:1,h:3830,c:4]                                             reshape_148_const   | +15,320(+100.0%)                       concat_oi8[0]                                
                                                                                                                 reshape_124_const   | 
                                                                                                                 reshape_104_const   | 
                                                                                                                  reshape_84_const   | 
                                                                                                                  reshape_63_const   | 
------ -------------------------------------------- ----------------------- --------------- ----------- -------------------------- --- ------------------ ------------------- -------------------------------------------- 
150    concat_150 (Concat, CONCATENATION)           [b:1,h:3830,c:10]                                               conversion_134   |                                        concat_oi8[94]                               
                                                                                                                        concat_140   | 
                                                                                                                        concat_149   | 
------ -------------------------------------------- ----------------------- --------------- ----------- -------------------------- --- ------------------ ------------------- -------------------------------------------- 
151    conversion_151 (Conversion, DEQUANTIZE)      [b:1,h:3830,c:10]                            76,600                 concat_150   |                                        converter_of32[o][95]                        
------ -------------------------------------------- ----------------------- --------------- ----------- -------------------------- --- ------------------ ------------------- -------------------------------------------- 
model/c-model: macc=41,433,322/40,573,698 -859,624(-2.1%) weights=448,800/448,800  activations=--/200,292 io=--/0



Generated C-graph summary
------------------------------------------------------------------------------------------------------------------------
model name            : quantized_model
c-name                : face_detection
c-node #              : 96
c-array #             : 271
activations size      : 200292 (1 segment)
weights size          : 448800 (1 segment)
macc                  : 40573698
inputs                : ['serving_default_input_10_output']
outputs               : ['conversion_151_output']

C-Arrays (271)
------ ---------------------------------- --------------- ------------------------- --------------- -------------- --------- 
c_id   name (*_array)                     item/size       domain/mem-pool           c-type          fmt            comment   
------ ---------------------------------- --------------- ------------------------- --------------- -------------- --------- 
0      conv2d_6_bias                      32/128          weights/weights           const int32_t   ss32/ch(32)              
1      conv2d_27_scratch1                 18432/18432     activations/**default**   int8_t          sa8                      
2      conv2d_7_weights                   288/288         weights/weights           const int8_t    ss8/ch(32)               
3      conv2d_30_scratch0                 4737/4737       activations/**default**   int8_t          s8                       
4      conv2d_7_bias                      32/128          weights/weights           const int32_t   ss32/ch(32)              
5      conv2d_30_scratch1                 4608/4608       activations/**default**   int8_t          sa8                      
6      conv2d_8_weights                   1024/1024       weights/weights           const int8_t    ss8/ch(32)               
7      conv2d_31_scratch0                 3072/3072       activations/**default**   int8_t          s8                       
8      conv2d_8_bias                      32/128          weights/weights           const int32_t   ss32/ch(32)              
9      conv2d_31_scratch1                 9216/9216       activations/**default**   int8_t          sa8                      
10     conv2d_10_weights                  288/288         weights/weights           const int8_t    ss8/ch(32)               
11     conv2d_32_scratch0                 9473/9473       activations/**default**   int8_t          s8                       
12     conv2d_10_bias                     32/128          weights/weights           const int32_t   ss32/ch(32)              
13     conv2d_32_scratch1                 9216/9216       activations/**default**   int8_t          sa8                      
14     conv2d_11_weights                  2048/2048       weights/weights           const int8_t    ss8/ch(64)               
15     conv2d_26_scratch1                 18432/18432     activations/**default**   int8_t          sa8                      
16     conv2d_33_scratch0                 3584/3584       activations/**default**   int8_t          s8                       
17     conv2d_11_bias                     64/256          weights/weights           const int32_t   ss32/ch(64)              
18     conv2d_33_scratch1                 9216/9216       activations/**default**   int8_t          sa8                      
19     conv2d_12_weights                  576/576         weights/weights           const int8_t    ss8/ch(64)               
20     conv2d_35_scratch0                 9473/9473       activations/**default**   int8_t          s8                       
21     conv2d_12_bias                     64/256          weights/weights           const int32_t   ss32/ch(64)              
22     conv2d_35_scratch1                 2304/2304       activations/**default**   int8_t          sa8                      
23     conv2d_13_weights                  4096/4096       weights/weights           const int8_t    ss8/ch(64)               
24     conv2d_36_scratch0                 3584/3584       activations/**default**   int8_t          s8                       
25     conv2d_13_bias                     64/256          weights/weights           const int32_t   ss32/ch(64)              
26     conv2d_36_scratch1                 2304/2304       activations/**default**   int8_t          sa8                      
27     conv2d_16_weights                  576/576         weights/weights           const int8_t    ss8/ch(64)               
28     conv2d_37_scratch0                 9473/9473       activations/**default**   int8_t          s8                       
29     conv2d_16_bias                     64/256          weights/weights           const int32_t   ss32/ch(64)              
30     conv2d_37_scratch1                 2304/2304       activations/**default**   int8_t          sa8                      
31     conv2d_17_weights                  8192/8192       weights/weights           const int8_t    ss8/ch(128)              
32     conv2d_38_scratch0                 3584/3584       activations/**default**   int8_t          s8                       
33     conv2d_17_bias                     128/512         weights/weights           const int32_t   ss32/ch(128)             
34     conv2d_38_scratch1                 2304/2304       activations/**default**   int8_t          sa8                      
35     conv2d_18_weights                  1152/1152       weights/weights           const int8_t    ss8/ch(128)              
36     conv2d_45_scratch0                 1344/1344       activations/**default**   int8_t          s8                       
37     conv2d_18_bias                     128/512         weights/weights           const int32_t   ss32/ch(128)             
38     conv2d_46_scratch0                 6372/6372       activations/**default**   int8_t          s8                       
39     conv2d_19_weights                  16384/16384     weights/weights           const int8_t    ss8/ch(128)              
40     conv2d_51_scratch0                 6472/6472       activations/**default**   int8_t          s8                       
41     conv2d_19_bias                     128/512         weights/weights           const int32_t   ss32/ch(128)             
42     conv2d_20_weights                  1152/1152       weights/weights           const int8_t    ss8/ch(128)              
43     conv2d_39_scratch0                 1344/1344       activations/**default**   int8_t          s8                       
44     conv2d_20_bias                     128/512         weights/weights           const int32_t   ss32/ch(128)             
45     conv2d_67_scratch0                 6472/6472       activations/**default**   int8_t          s8                       
46     conv2d_21_weights                  16384/16384     weights/weights           const int8_t    ss8/ch(128)              
47     conv2d_72_scratch0                 6372/6372       activations/**default**   int8_t          s8                       
48     conv2d_21_bias                     128/512         weights/weights           const int32_t   ss32/ch(128)             
49     conv2d_34_scratch0                 1344/1344       activations/**default**   int8_t          s8                       
50     conv2d_22_weights                  1152/1152       weights/weights           const int8_t    ss8/ch(128)              
51     conv2d_22_bias                     128/512         weights/weights           const int32_t   ss32/ch(128)             
52     conv2d_87_scratch0                 6372/6372       activations/**default**   int8_t          s8                       
53     conv2d_23_weights                  16384/16384     weights/weights           const int8_t    ss8/ch(128)              
54     conv2d_92_scratch0                 6472/6472       activations/**default**   int8_t          s8                       
55     conv2d_23_bias                     128/512         weights/weights           const int32_t   ss32/ch(128)             
56     conv2d_28_scratch0                 832/832         activations/**default**   int8_t          s8                       
57     conv2d_24_weights                  1152/1152       weights/weights           const int8_t    ss8/ch(128)              
58     conv2d_107_scratch0                6372/6372       activations/**default**   int8_t          s8                       
59     conv2d_24_bias                     128/512         weights/weights           const int32_t   ss32/ch(128)             
60     conv2d_25_weights                  16384/16384     weights/weights           const int8_t    ss8/ch(128)              
61     conv2d_112_scratch0                6472/6472       activations/**default**   int8_t          s8                       
62     conv2d_25_bias                     128/512         weights/weights           const int32_t   ss32/ch(128)             
63     conv2d_14_scratch0                 576/576         activations/**default**   int8_t          s8                       
64     conv2d_26_weights                  1152/1152       weights/weights           const int8_t    ss8/ch(128)              
65     conv2d_127_scratch0                6372/6372       activations/**default**   int8_t          s8                       
66     conv2d_26_bias                     128/512         weights/weights           const int32_t   ss32/ch(128)             
67     conv2d_135_scratch0                6472/6472       activations/**default**   int8_t          s8                       
68     conv2d_27_weights                  16384/16384     weights/weights           const int8_t    ss8/ch(128)              
69     conv2d_27_bias                     128/512         weights/weights           const int32_t   ss32/ch(128)             
70     conv2d_30_weights                  1152/1152       weights/weights           const int8_t    ss8/ch(128)              
71     conv2d_30_bias                     128/512         weights/weights           const int32_t   ss32/ch(128)             
72     conv2d_31_weights                  32768/32768     weights/weights           const int8_t    ss8/ch(256)              
73     conv2d_31_bias                     256/1024        weights/weights           const int32_t   ss32/ch(256)             
74     conv2d_32_weights                  2304/2304       weights/weights           const int8_t    ss8/ch(256)              
75     concat_149_output                  15320/15320     activations/**default**   int8_t          sa8                      
76     conv2d_32_bias                     256/1024        weights/weights           const int32_t   ss32/ch(256)             
77     serving_default_input_10_output    110592/110592   activations/**default**   uint8_t         ua8            /input    
78     conversion_0_output                110592/110593   activations/**default**   int8_t          sa8                      
79     conv2d_33_weights                  65536/65536     weights/weights           const int8_t    ss8/ch(256)              
80     conv2d_1_output                    73728/73728     activations/**default**   int8_t          sa8                      
81     conv2d_2_pad_before_output         76832/76832     activations/**default**   int8_t          sa8                      
82     conv2d_33_bias                     256/1024        weights/weights           const int32_t   ss32/ch(256)             
83     conv2d_2_output                    73728/73728     activations/**default**   int8_t          sa8                      
84     conv2d_3_output                    147456/147456   activations/**default**   int8_t          sa8                      
85     conv2d_35_weights                  2304/2304       weights/weights           const int8_t    ss8/ch(256)              
86     conv2d_5_pad_before_output         150544/150544   activations/**default**   int8_t          sa8                      
87     conv2d_5_output                    36864/36864     activations/**default**   int8_t          sa8                      
88     conv2d_35_bias                     256/1024        weights/weights           const int32_t   ss32/ch(256)             
89     conv2d_6_output                    73728/73728     activations/**default**   int8_t          sa8                      
90     conv2d_7_pad_before_output         80000/80000     activations/**default**   int8_t          sa8                      
91     conv2d_36_weights                  65536/65536     weights/weights           const int8_t    ss8/ch(256)              
92     conv2d_7_output                    73728/73728     activations/**default**   int8_t          sa8                      
93     conv2d_8_output                    73728/73728     activations/**default**   int8_t          sa8                      
94     conv2d_36_bias                     256/1024        weights/weights           const int32_t   ss32/ch(256)             
95     conv2d_10_pad_before_output        76832/76832     activations/**default**   int8_t          sa8                      
96     conv2d_10_output                   18432/18432     activations/**default**   int8_t          sa8                      
97     conv2d_37_weights                  2304/2304       weights/weights           const int8_t    ss8/ch(256)              
98     conv2d_11_output                   36864/36864     activations/**default**   int8_t          sa8                      
99     conv2d_12_pad_before_output        43264/43264     activations/**default**   int8_t          sa8                      
100    conv2d_37_bias                     256/1024        weights/weights           const int32_t   ss32/ch(256)             
101    conv2d_12_output                   36864/36864     activations/**default**   int8_t          sa8                      
102    conv2d_13_output                   36864/36864     activations/**default**   int8_t          sa8                      
103    conv2d_38_weights                  65536/65536     weights/weights           const int8_t    ss8/ch(256)              
104    conv2d_16_pad_before_output        40000/40000     activations/**default**   int8_t          sa8                      
105    conv2d_16_output                   9216/9216       activations/**default**   int8_t          sa8                      
106    conv2d_38_bias                     256/1024        weights/weights           const int32_t   ss32/ch(256)             
107    conv2d_17_output                   18432/18432     activations/**default**   int8_t          sa8                      
108    conv2d_18_pad_before_output        25088/25088     activations/**default**   int8_t          sa8                      
109    conv2d_45_weights                  8192/8192       weights/weights           const int8_t    ss8/ch(32)               
110    conv2d_18_output                   18432/18432     activations/**default**   int8_t          sa8                      
111    conv2d_19_output                   18432/18432     activations/**default**   int8_t          sa8                      
112    conv2d_45_bias                     32/128          weights/weights           const int32_t   ss32/ch(32)              
113    conv2d_20_pad_before_output        25088/25088     activations/**default**   int8_t          sa8                      
114    conv2d_20_output                   18432/18432     activations/**default**   int8_t          sa8                      
115    conv2d_46_weights                  2880/2880       weights/weights           const int8_t    ss8/ch(10)               
116    conv2d_21_output                   18432/18432     activations/**default**   int8_t          sa8                      
117    conv2d_22_pad_before_output        25088/25088     activations/**default**   int8_t          sa8                      
118    conv2d_46_bias                     10/40           weights/weights           const int32_t   ss32/ch(10)              
119    conv2d_22_output                   18432/18432     activations/**default**   int8_t          sa8                      
120    conv2d_23_output                   18432/18432     activations/**default**   int8_t          sa8                      
121    conv2d_51_weights                  5760/5760       weights/weights           const int8_t    ss8/ch(20)               
122    conv2d_24_pad_before_output        25088/25088     activations/**default**   int8_t          sa8                      
123    conv2d_24_output                   18432/18432     activations/**default**   int8_t          sa8                      
124    conv2d_51_bias                     20/80           weights/weights           const int32_t   ss32/ch(20)              
125    conv2d_25_output                   18432/18432     activations/**default**   int8_t          sa8                      
126    conv2d_26_pad_before_output        25088/25088     activations/**default**   int8_t          sa8                      
127    conv2d_39_weights                  8192/8192       weights/weights           const int8_t    ss8/ch(32)               
128    conv2d_26_output                   18432/18432     activations/**default**   int8_t          sa8                      
129    conv2d_27_output                   18432/18432     activations/**default**   int8_t          sa8                      
130    conv2d_39_bias                     32/128          weights/weights           const int32_t   ss32/ch(32)              
131    conv2d_30_pad_before_output        21632/21632     activations/**default**   int8_t          sa8                      
132    conv2d_30_output                   4608/4608       activations/**default**   int8_t          sa8                      
133    conv2d_67_weights                  5760/5760       weights/weights           const int8_t    ss8/ch(20)               
134    conv2d_31_output                   9216/9216       activations/**default**   int8_t          sa8                      
135    conv2d_32_pad_before_output        16384/16384     activations/**default**   int8_t          sa8                      
136    conv2d_67_bias                     20/80           weights/weights           const int32_t   ss32/ch(20)              
137    conv2d_32_output                   9216/9216       activations/**default**   int8_t          sa8                      
138    conv2d_33_output                   9216/9216       activations/**default**   int8_t          sa8                      
139    conv2d_72_weights                  2880/2880       weights/weights           const int8_t    ss8/ch(10)               
140    conv2d_35_pad_before_output        16384/16384     activations/**default**   int8_t          sa8                      
141    conv2d_35_output                   2304/2304       activations/**default**   int8_t          sa8                      
142    conv2d_72_bias                     10/40           weights/weights           const int32_t   ss32/ch(10)              
143    conv2d_36_output                   2304/2304       activations/**default**   int8_t          sa8                      
144    conv2d_37_pad_before_output        6400/6400       activations/**default**   int8_t          sa8                      
145    conv2d_34_weights                  8192/8192       weights/weights           const int8_t    ss8/ch(32)               
146    conv2d_37_output                   2304/2304       activations/**default**   int8_t          sa8                      
147    conv2d_38_output                   2304/2304       activations/**default**   int8_t          sa8                      
148    conv2d_34_bias                     32/128          weights/weights           const int32_t   ss32/ch(32)              
149    pool_40_output                     256/256         activations/**default**   int8_t          sa8                      
150    conv2d_45_output                   32/32           activations/**default**   int8_t          sa8                      
151    conv2d_87_weights                  2880/2880       weights/weights           const int8_t    ss8/ch(10)               
152    conv2d_46_pad_before_output        288/288         activations/**default**   int8_t          sa8                      
153    conv2d_46_output                   10/10           activations/**default**   int8_t          sa8                      
154    conv2d_87_bias                     10/40           weights/weights           const int32_t   ss32/ch(10)              
155    conv2d_51_pad_before_output        288/288         activations/**default**   int8_t          sa8                      
156    conv2d_51_output                   20/20           activations/**default**   int8_t          sa8                      
157    conv2d_92_weights                  5760/5760       weights/weights           const int8_t    ss8/ch(20)               
158    tile_64_output                     128/128         activations/**default**   int8_t          sa8                      
159    pad_65_output                      288/288         activations/**default**   int8_t          sa8                      
160    conv2d_92_bias                     20/80           weights/weights           const int32_t   ss32/ch(20)              
161    conv2d_39_output                   288/288         activations/**default**   int8_t          sa8                      
162    eltwise_66_output                  288/288         activations/**default**   int8_t          sa8                      
163    conv2d_28_weights                  4096/4096       weights/weights           const int8_t    ss8/ch(32)               
164    eltwise_66_0_conversion_output     288/1152        activations/**default**   float           float32                  
165    upsample_85_output                 1152/4608       activations/**default**   float           float32                  
166    conv2d_28_bias                     32/128          weights/weights           const int32_t   ss32/ch(32)              
167    upsample_85_0_conversion_output    1152/1152       activations/**default**   int8_t          sa8                      
168    conv2d_67_pad_before_output        800/800         activations/**default**   int8_t          sa8                      
169    conv2d_107_weights                 2880/2880       weights/weights           const int8_t    ss8/ch(10)               
170    conv2d_67_output                   180/180         activations/**default**   int8_t          sa8                      
171    conv2d_72_pad_before_output        800/800         activations/**default**   int8_t          sa8                      
172    conv2d_107_bias                    10/40           weights/weights           const int32_t   ss32/ch(10)              
173    conv2d_72_output                   90/90           activations/**default**   int8_t          sa8                      
174    conv2d_34_output                   1152/1152       activations/**default**   int8_t          sa8                      
175    conv2d_112_weights                 5760/5760       weights/weights           const int8_t    ss8/ch(20)               
176    eltwise_86_output                  1152/1152       activations/**default**   int8_t          sa8                      
177    eltwise_86_0_conversion_output     1152/4608       activations/**default**   float           float32                  
178    conv2d_112_bias                    20/80           weights/weights           const int32_t   ss32/ch(20)              
179    upsample_105_output                4608/18432      activations/**default**   float           float32                  
180    upsample_105_0_conversion_output   4608/4608       activations/**default**   int8_t          sa8                      
181    conv2d_14_weights                  2048/2048       weights/weights           const int8_t    ss8/ch(32)               
182    conv2d_87_pad_before_output        2048/2048       activations/**default**   int8_t          sa8                      
183    conv2d_87_output                   360/360         activations/**default**   int8_t          sa8                      
184    conv2d_14_bias                     32/128          weights/weights           const int32_t   ss32/ch(32)              
185    conv2d_92_pad_before_output        2048/2048       activations/**default**   int8_t          sa8                      
186    conv2d_92_output                   720/720         activations/**default**   int8_t          sa8                      
187    conv2d_127_weights                 2880/2880       weights/weights           const int8_t    ss8/ch(10)               
188    conv2d_28_output                   4608/4608       activations/**default**   int8_t          sa8                      
189    eltwise_106_output                 4608/4608       activations/**default**   int8_t          sa8                      
190    conv2d_127_bias                    10/40           weights/weights           const int32_t   ss32/ch(10)              
191    eltwise_106_0_conversion_output    4608/18432      activations/**default**   float           float32                  
192    upsample_125_output                18432/73728     activations/**default**   float           float32                  
193    conv2d_135_weights                 5760/5760       weights/weights           const int8_t    ss8/ch(20)               
194    upsample_125_0_conversion_output   18432/18432     activations/**default**   int8_t          sa8                      
195    conv2d_107_pad_before_output       6272/6272       activations/**default**   int8_t          sa8                      
196    conv2d_135_bias                    20/80           weights/weights           const int32_t   ss32/ch(20)              
197    conv2d_107_output                  1440/1440       activations/**default**   int8_t          sa8                      
198    conv2d_112_pad_before_output       6272/6272       activations/**default**   int8_t          sa8                      
199    conv2d_1_scratch0                  652/652         activations/**default**   int8_t          s8                       
200    conv2d_112_output                  2880/2880       activations/**default**   int8_t          sa8                      
201    conv2d_14_output                   18432/18432     activations/**default**   int8_t          sa8                      
202    conv2d_1_scratch1                  73728/73728     activations/**default**   int8_t          sa8                      
203    eltwise_126_output                 18432/18432     activations/**default**   int8_t          sa8                      
204    conv2d_127_pad_before_output       21632/21632     activations/**default**   int8_t          sa8                      
205    conv2d_2_scratch0                  297/297         activations/**default**   int8_t          s8                       
206    conv2d_127_output                  5760/5760       activations/**default**   int8_t          sa8                      
207    concat_132_output                  7660/7660       activations/**default**   int8_t          sa8                      
208    conv2d_2_scratch1                  73728/73728     activations/**default**   int8_t          sa8                      
209    concat_132_0_conversion_output     7660/30640      activations/**default**   float           float32                  
210    nl_133_output                      7660/30640      activations/**default**   float           float32                  
211    conv2d_3_scratch0                  192/192         activations/**default**   int8_t          s8                       
212    nl_133_0_conversion_output         7660/7660       activations/**default**   int8_t          sa8                      
213    conv2d_135_pad_before_output       21632/21632     activations/**default**   int8_t          sa8                      
214    conv2d_3_scratch1                  147456/147456   activations/**default**   int8_t          sa8                      
215    conv2d_135_output                  11520/11520     activations/**default**   int8_t          sa8                      
216    concat_140_output                  15320/15320     activations/**default**   int8_t          sa8                      
217    conv2d_5_scratch0                  593/593         activations/**default**   int8_t          s8                       
218    concat_150_output                  38300/38300     activations/**default**   int8_t          sa8                      
219    conversion_151_output              38300/153200    activations/**default**   float           float32        /output   
220    conv2d_5_scratch1                  36864/36864     activations/**default**   int8_t          sa8                      
221    conv2d_6_scratch0                  384/384         activations/**default**   int8_t          s8                       
222    conv2d_6_scratch1                  73728/73728     activations/**default**   int8_t          sa8                      
223    conv2d_7_scratch0                  1185/1185       activations/**default**   int8_t          s8                       
224    conv2d_7_scratch1                  73728/73728     activations/**default**   int8_t          sa8                      
225    conv2d_8_scratch0                  448/448         activations/**default**   int8_t          s8                       
226    conv2d_8_scratch1                  73728/73728     activations/**default**   int8_t          sa8                      
227    conv2d_10_scratch0                 1185/1185       activations/**default**   int8_t          s8                       
228    conv2d_10_scratch1                 18432/18432     activations/**default**   int8_t          sa8                      
229    conv2d_11_scratch0                 768/768         activations/**default**   int8_t          s8                       
230    conv2d_11_scratch1                 36864/36864     activations/**default**   int8_t          sa8                      
231    conv2d_12_scratch0                 2369/2369       activations/**default**   int8_t          s8                       
232    conv2d_12_scratch1                 36864/36864     activations/**default**   int8_t          sa8                      
233    conv2d_13_scratch0                 896/896         activations/**default**   int8_t          s8                       
234    conv2d_13_scratch1                 36864/36864     activations/**default**   int8_t          sa8                      
235    conv2d_16_scratch0                 2369/2369       activations/**default**   int8_t          s8                       
236    conv2d_16_scratch1                 9216/9216       activations/**default**   int8_t          sa8                      
237    conv2d_17_scratch0                 1536/1536       activations/**default**   int8_t          s8                       
238    conv2d_17_scratch1                 18432/18432     activations/**default**   int8_t          sa8                      
239    conv2d_18_scratch0                 4737/4737       activations/**default**   int8_t          s8                       
240    conv2d_18_scratch1                 18432/18432     activations/**default**   int8_t          sa8                      
241    conv2d_19_scratch0                 1792/1792       activations/**default**   int8_t          s8                       
242    conv2d_19_scratch1                 18432/18432     activations/**default**   int8_t          sa8                      
243    conv2d_20_scratch0                 4737/4737       activations/**default**   int8_t          s8                       
244    conv2d_20_scratch1                 18432/18432     activations/**default**   int8_t          sa8                      
245    reshape_63_const                   20/20           weights/weights           const int8_t    sa8                      
246    reshape_84_const                   180/180         weights/weights           const int8_t    sa8                      
247    conv2d_21_scratch0                 1792/1792       activations/**default**   int8_t          s8                       
248    conv2d_21_scratch1                 18432/18432     activations/**default**   int8_t          sa8                      
249    reshape_104_const                  720/720         weights/weights           const int8_t    sa8                      
250    reshape_124_const                  2880/2880       weights/weights           const int8_t    sa8                      
251    conv2d_22_scratch0                 4737/4737       activations/**default**   int8_t          s8                       
252    conv2d_22_scratch1                 18432/18432     activations/**default**   int8_t          sa8                      
253    reshape_148_const                  11520/11520     weights/weights           const int8_t    sa8                      
254    conv2d_1_weights                   216/216         weights/weights           const int8_t    ss8/ch(8)                
255    conv2d_23_scratch0                 1792/1792       activations/**default**   int8_t          s8                       
256    conv2d_1_bias                      8/32            weights/weights           const int32_t   ss32/ch(8)               
257    conv2d_23_scratch1                 18432/18432     activations/**default**   int8_t          sa8                      
258    conv2d_2_weights                   72/72           weights/weights           const int8_t    ss8/ch(8)                
259    conv2d_24_scratch0                 4737/4737       activations/**default**   int8_t          s8                       
260    conv2d_2_bias                      8/32            weights/weights           const int32_t   ss32/ch(8)               
261    conv2d_24_scratch1                 18432/18432     activations/**default**   int8_t          sa8                      
262    conv2d_3_weights                   128/128         weights/weights           const int8_t    ss8/ch(16)               
263    conv2d_25_scratch0                 1792/1792       activations/**default**   int8_t          s8                       
264    conv2d_3_bias                      16/64           weights/weights           const int32_t   ss32/ch(16)              
265    conv2d_25_scratch1                 18432/18432     activations/**default**   int8_t          sa8                      
266    conv2d_5_weights                   144/144         weights/weights           const int8_t    ss8/ch(16)               
267    conv2d_26_scratch0                 4737/4737       activations/**default**   int8_t          s8                       
268    conv2d_5_bias                      16/64           weights/weights           const int32_t   ss32/ch(16)              
269    conv2d_6_weights                   512/512         weights/weights           const int8_t    ss8/ch(32)               
270    conv2d_27_scratch0                 1792/1792       activations/**default**   int8_t          s8                       
------ ---------------------------------- --------------- ------------------------- --------------- -------------- --------- 

C-Layers (96)
------ --------------------------- ----- ------------------- --------- ------- ------------------------------------- --------------------- 
c_id   name (*_layer)              id    layer_type          macc      rom     tensors                               shape (array id)      
------ --------------------------- ----- ------------------- --------- ------- ------------------------------------- --------------------- 
0      concat_149                  149   concat              0         15320   I: reshape_148_const                  (1,2880,1,4) (253)    
                                                                               I: reshape_124_const                  (1,720,1,4) (250)     
                                                                               I: reshape_104_const                  (1,180,1,4) (249)     
                                                                               I: reshape_84_const                   (1,45,1,4) (246)      
                                                                               I: reshape_63_const                   (1,5,1,4) (245)       
                                                                               O: concat_149_output                  (1,3830,1,4) (75)     
------ --------------------------- ----- ------------------- --------- ------- ------------------------------------- --------------------- 
1      conversion_0                0     converter           221184    0       I: serving_default_input_10_output    (1,192,192,3) (77)    
                                                                               O: conversion_0_output                (1,192,192,3) (78)    
------ --------------------------- ----- ------------------- --------- ------- ------------------------------------- --------------------- 
2      conv2d_1                    1     optimized_conv2d    1990664   248     I: conversion_0_output                (1,192,192,3) (78)    
                                                                               S: conv2d_1_scratch0                                        
                                                                               S: conv2d_1_scratch1                                        
                                                                               W: conv2d_1_weights                   (3,8,3,3) (254)       
                                                                               W: conv2d_1_bias                      (1,1,1,8) (256)       
                                                                               O: conv2d_1_output                    (1,96,96,8) (80)      
------ --------------------------- ----- ------------------- --------- ------- ------------------------------------- --------------------- 
3      conv2d_2_pad_before         2     pad                 0         0       I: conv2d_1_output                    (1,96,96,8) (80)      
                                                                               O: conv2d_2_pad_before_output         (1,98,98,8) (81)      
------ --------------------------- ----- ------------------- --------- ------- ------------------------------------- --------------------- 
4      conv2d_2                    2     conv2d              663560    104     I: conv2d_2_pad_before_output         (1,98,98,8) (81)      
                                                                               S: conv2d_2_scratch0                                        
                                                                               S: conv2d_2_scratch1                                        
                                                                               W: conv2d_2_weights                   (8,1,3,3) (258)       
                                                                               W: conv2d_2_bias                      (1,1,1,8) (260)       
                                                                               O: conv2d_2_output                    (1,96,96,8) (83)      
------ --------------------------- ----- ------------------- --------- ------- ------------------------------------- --------------------- 
5      conv2d_3                    3     conv2d              1179664   192     I: conv2d_2_output                    (1,96,96,8) (83)      
                                                                               S: conv2d_3_scratch0                                        
                                                                               S: conv2d_3_scratch1                                        
                                                                               W: conv2d_3_weights                   (8,16,1,1) (262)      
                                                                               W: conv2d_3_bias                      (1,1,1,16) (264)      
                                                                               O: conv2d_3_output                    (1,96,96,16) (84)     
------ --------------------------- ----- ------------------- --------- ------- ------------------------------------- --------------------- 
6      conv2d_5_pad_before         5     pad                 0         0       I: conv2d_3_output                    (1,96,96,16) (84)     
                                                                               O: conv2d_5_pad_before_output         (1,97,97,16) (86)     
------ --------------------------- ----- ------------------- --------- ------- ------------------------------------- --------------------- 
7      conv2d_5                    4     conv2d              331792    208     I: conv2d_5_pad_before_output         (1,97,97,16) (86)     
                                                                               S: conv2d_5_scratch0                                        
                                                                               S: conv2d_5_scratch1                                        
                                                                               W: conv2d_5_weights                   (16,1,3,3) (266)      
                                                                               W: conv2d_5_bias                      (1,1,1,16) (268)      
                                                                               O: conv2d_5_output                    (1,48,48,16) (87)     
------ --------------------------- ----- ------------------- --------- ------- ------------------------------------- --------------------- 
8      conv2d_6                    6     conv2d              1179680   640     I: conv2d_5_output                    (1,48,48,16) (87)     
                                                                               S: conv2d_6_scratch0                                        
                                                                               S: conv2d_6_scratch1                                        
                                                                               W: conv2d_6_weights                   (16,32,1,1) (269)     
                                                                               W: conv2d_6_bias                      (1,1,1,32) (0)        
                                                                               O: conv2d_6_output                    (1,48,48,32) (89)     
------ --------------------------- ----- ------------------- --------- ------- ------------------------------------- --------------------- 
9      conv2d_7_pad_before         7     pad                 0         0       I: conv2d_6_output                    (1,48,48,32) (89)     
                                                                               O: conv2d_7_pad_before_output         (1,50,50,32) (90)     
------ --------------------------- ----- ------------------- --------- ------- ------------------------------------- --------------------- 
10     conv2d_7                    7     conv2d              663584    416     I: conv2d_7_pad_before_output         (1,50,50,32) (90)     
                                                                               S: conv2d_7_scratch0                                        
                                                                               S: conv2d_7_scratch1                                        
                                                                               W: conv2d_7_weights                   (32,1,3,3) (2)        
                                                                               W: conv2d_7_bias                      (1,1,1,32) (4)        
                                                                               O: conv2d_7_output                    (1,48,48,32) (92)     
------ --------------------------- ----- ------------------- --------- ------- ------------------------------------- --------------------- 
11     conv2d_8                    8     conv2d              2359328   1152    I: conv2d_7_output                    (1,48,48,32) (92)     
                                                                               S: conv2d_8_scratch0                                        
                                                                               S: conv2d_8_scratch1                                        
                                                                               W: conv2d_8_weights                   (32,32,1,1) (6)       
                                                                               W: conv2d_8_bias                      (1,1,1,32) (8)        
                                                                               O: conv2d_8_output                    (1,48,48,32) (93)     
------ --------------------------- ----- ------------------- --------- ------- ------------------------------------- --------------------- 
12     conv2d_10_pad_before        10    pad                 0         0       I: conv2d_8_output                    (1,48,48,32) (93)     
                                                                               O: conv2d_10_pad_before_output        (1,49,49,32) (95)     
------ --------------------------- ----- ------------------- --------- ------- ------------------------------------- --------------------- 
13     conv2d_10                   9     conv2d              165920    416     I: conv2d_10_pad_before_output        (1,49,49,32) (95)     
                                                                               S: conv2d_10_scratch0                                       
                                                                               S: conv2d_10_scratch1                                       
                                                                               W: conv2d_10_weights                  (32,1,3,3) (10)       
                                                                               W: conv2d_10_bias                     (1,1,1,32) (12)       
                                                                               O: conv2d_10_output                   (1,24,24,32) (96)     
------ --------------------------- ----- ------------------- --------- ------- ------------------------------------- --------------------- 
14     conv2d_11                   11    conv2d              1179712   2304    I: conv2d_10_output                   (1,24,24,32) (96)     
                                                                               S: conv2d_11_scratch0                                       
                                                                               S: conv2d_11_scratch1                                       
                                                                               W: conv2d_11_weights                  (32,64,1,1) (14)      
                                                                               W: conv2d_11_bias                     (1,1,1,64) (17)       
                                                                               O: conv2d_11_output                   (1,24,24,64) (98)     
------ --------------------------- ----- ------------------- --------- ------- ------------------------------------- --------------------- 
15     conv2d_12_pad_before        12    pad                 0         0       I: conv2d_11_output                   (1,24,24,64) (98)     
                                                                               O: conv2d_12_pad_before_output        (1,26,26,64) (99)     
------ --------------------------- ----- ------------------- --------- ------- ------------------------------------- --------------------- 
16     conv2d_12                   12    conv2d              331840    832     I: conv2d_12_pad_before_output        (1,26,26,64) (99)     
                                                                               S: conv2d_12_scratch0                                       
                                                                               S: conv2d_12_scratch1                                       
                                                                               W: conv2d_12_weights                  (64,1,3,3) (19)       
                                                                               W: conv2d_12_bias                     (1,1,1,64) (21)       
                                                                               O: conv2d_12_output                   (1,24,24,64) (101)    
------ --------------------------- ----- ------------------- --------- ------- ------------------------------------- --------------------- 
17     conv2d_13                   13    conv2d              2359360   4352    I: conv2d_12_output                   (1,24,24,64) (101)    
                                                                               S: conv2d_13_scratch0                                       
                                                                               S: conv2d_13_scratch1                                       
                                                                               W: conv2d_13_weights                  (64,64,1,1) (23)      
                                                                               W: conv2d_13_bias                     (1,1,1,64) (25)       
                                                                               O: conv2d_13_output                   (1,24,24,64) (102)    
------ --------------------------- ----- ------------------- --------- ------- ------------------------------------- --------------------- 
18     conv2d_16_pad_before        16    pad                 0         0       I: conv2d_13_output                   (1,24,24,64) (102)    
                                                                               O: conv2d_16_pad_before_output        (1,25,25,64) (104)    
------ --------------------------- ----- ------------------- --------- ------- ------------------------------------- --------------------- 
19     conv2d_16                   15    conv2d              83008     832     I: conv2d_16_pad_before_output        (1,25,25,64) (104)    
                                                                               S: conv2d_16_scratch0                                       
                                                                               S: conv2d_16_scratch1                                       
                                                                               W: conv2d_16_weights                  (64,1,3,3) (27)       
                                                                               W: conv2d_16_bias                     (1,1,1,64) (29)       
                                                                               O: conv2d_16_output                   (1,12,12,64) (105)    
------ --------------------------- ----- ------------------- --------- ------- ------------------------------------- --------------------- 
20     conv2d_17                   17    conv2d              1179776   8704    I: conv2d_16_output                   (1,12,12,64) (105)    
                                                                               S: conv2d_17_scratch0                                       
                                                                               S: conv2d_17_scratch1                                       
                                                                               W: conv2d_17_weights                  (64,128,1,1) (31)     
                                                                               W: conv2d_17_bias                     (1,1,1,128) (33)      
                                                                               O: conv2d_17_output                   (1,12,12,128) (107)   
------ --------------------------- ----- ------------------- --------- ------- ------------------------------------- --------------------- 
21     conv2d_18_pad_before        18    pad                 0         0       I: conv2d_17_output                   (1,12,12,128) (107)   
                                                                               O: conv2d_18_pad_before_output        (1,14,14,128) (108)   
------ --------------------------- ----- ------------------- --------- ------- ------------------------------------- --------------------- 
22     conv2d_18                   18    conv2d              166016    1664    I: conv2d_18_pad_before_output        (1,14,14,128) (108)   
                                                                               S: conv2d_18_scratch0                                       
                                                                               S: conv2d_18_scratch1                                       
                                                                               W: conv2d_18_weights                  (128,1,3,3) (35)      
                                                                               W: conv2d_18_bias                     (1,1,1,128) (37)      
                                                                               O: conv2d_18_output                   (1,12,12,128) (110)   
------ --------------------------- ----- ------------------- --------- ------- ------------------------------------- --------------------- 
23     conv2d_19                   19    conv2d              2359424   16896   I: conv2d_18_output                   (1,12,12,128) (110)   
                                                                               S: conv2d_19_scratch0                                       
                                                                               S: conv2d_19_scratch1                                       
                                                                               W: conv2d_19_weights                  (128,128,1,1) (39)    
                                                                               W: conv2d_19_bias                     (1,1,1,128) (41)      
                                                                               O: conv2d_19_output                   (1,12,12,128) (111)   
------ --------------------------- ----- ------------------- --------- ------- ------------------------------------- --------------------- 
24     conv2d_20_pad_before        20    pad                 0         0       I: conv2d_19_output                   (1,12,12,128) (111)   
                                                                               O: conv2d_20_pad_before_output        (1,14,14,128) (113)   
------ --------------------------- ----- ------------------- --------- ------- ------------------------------------- --------------------- 
25     conv2d_20                   20    conv2d              166016    1664    I: conv2d_20_pad_before_output        (1,14,14,128) (113)   
                                                                               S: conv2d_20_scratch0                                       
                                                                               S: conv2d_20_scratch1                                       
                                                                               W: conv2d_20_weights                  (128,1,3,3) (42)      
                                                                               W: conv2d_20_bias                     (1,1,1,128) (44)      
                                                                               O: conv2d_20_output                   (1,12,12,128) (114)   
------ --------------------------- ----- ------------------- --------- ------- ------------------------------------- --------------------- 
26     conv2d_21                   21    conv2d              2359424   16896   I: conv2d_20_output                   (1,12,12,128) (114)   
                                                                               S: conv2d_21_scratch0                                       
                                                                               S: conv2d_21_scratch1                                       
                                                                               W: conv2d_21_weights                  (128,128,1,1) (46)    
                                                                               W: conv2d_21_bias                     (1,1,1,128) (48)      
                                                                               O: conv2d_21_output                   (1,12,12,128) (116)   
------ --------------------------- ----- ------------------- --------- ------- ------------------------------------- --------------------- 
27     conv2d_22_pad_before        22    pad                 0         0       I: conv2d_21_output                   (1,12,12,128) (116)   
                                                                               O: conv2d_22_pad_before_output        (1,14,14,128) (117)   
------ --------------------------- ----- ------------------- --------- ------- ------------------------------------- --------------------- 
28     conv2d_22                   22    conv2d              166016    1664    I: conv2d_22_pad_before_output        (1,14,14,128) (117)   
                                                                               S: conv2d_22_scratch0                                       
                                                                               S: conv2d_22_scratch1                                       
                                                                               W: conv2d_22_weights                  (128,1,3,3) (50)      
                                                                               W: conv2d_22_bias                     (1,1,1,128) (51)      
                                                                               O: conv2d_22_output                   (1,12,12,128) (119)   
------ --------------------------- ----- ------------------- --------- ------- ------------------------------------- --------------------- 
29     conv2d_23                   23    conv2d              2359424   16896   I: conv2d_22_output                   (1,12,12,128) (119)   
                                                                               S: conv2d_23_scratch0                                       
                                                                               S: conv2d_23_scratch1                                       
                                                                               W: conv2d_23_weights                  (128,128,1,1) (53)    
                                                                               W: conv2d_23_bias                     (1,1,1,128) (55)      
                                                                               O: conv2d_23_output                   (1,12,12,128) (120)   
------ --------------------------- ----- ------------------- --------- ------- ------------------------------------- --------------------- 
30     conv2d_24_pad_before        24    pad                 0         0       I: conv2d_23_output                   (1,12,12,128) (120)   
                                                                               O: conv2d_24_pad_before_output        (1,14,14,128) (122)   
------ --------------------------- ----- ------------------- --------- ------- ------------------------------------- --------------------- 
31     conv2d_24                   24    conv2d              166016    1664    I: conv2d_24_pad_before_output        (1,14,14,128) (122)   
                                                                               S: conv2d_24_scratch0                                       
                                                                               S: conv2d_24_scratch1                                       
                                                                               W: conv2d_24_weights                  (128,1,3,3) (57)      
                                                                               W: conv2d_24_bias                     (1,1,1,128) (59)      
                                                                               O: conv2d_24_output                   (1,12,12,128) (123)   
------ --------------------------- ----- ------------------- --------- ------- ------------------------------------- --------------------- 
32     conv2d_25                   25    conv2d              2359424   16896   I: conv2d_24_output                   (1,12,12,128) (123)   
                                                                               S: conv2d_25_scratch0                                       
                                                                               S: conv2d_25_scratch1                                       
                                                                               W: conv2d_25_weights                  (128,128,1,1) (60)    
                                                                               W: conv2d_25_bias                     (1,1,1,128) (62)      
                                                                               O: conv2d_25_output                   (1,12,12,128) (125)   
------ --------------------------- ----- ------------------- --------- ------- ------------------------------------- --------------------- 
33     conv2d_26_pad_before        26    pad                 0         0       I: conv2d_25_output                   (1,12,12,128) (125)   
                                                                               O: conv2d_26_pad_before_output        (1,14,14,128) (126)   
------ --------------------------- ----- ------------------- --------- ------- ------------------------------------- --------------------- 
34     conv2d_26                   26    conv2d              166016    1664    I: conv2d_26_pad_before_output        (1,14,14,128) (126)   
                                                                               S: conv2d_26_scratch0                                       
                                                                               S: conv2d_26_scratch1                                       
                                                                               W: conv2d_26_weights                  (128,1,3,3) (64)      
                                                                               W: conv2d_26_bias                     (1,1,1,128) (66)      
                                                                               O: conv2d_26_output                   (1,12,12,128) (128)   
------ --------------------------- ----- ------------------- --------- ------- ------------------------------------- --------------------- 
35     conv2d_27                   27    conv2d              2359424   16896   I: conv2d_26_output                   (1,12,12,128) (128)   
                                                                               S: conv2d_27_scratch0                                       
                                                                               S: conv2d_27_scratch1                                       
                                                                               W: conv2d_27_weights                  (128,128,1,1) (68)    
                                                                               W: conv2d_27_bias                     (1,1,1,128) (69)      
                                                                               O: conv2d_27_output                   (1,12,12,128) (129)   
------ --------------------------- ----- ------------------- --------- ------- ------------------------------------- --------------------- 
36     conv2d_30_pad_before        30    pad                 0         0       I: conv2d_27_output                   (1,12,12,128) (129)   
                                                                               O: conv2d_30_pad_before_output        (1,13,13,128) (131)   
------ --------------------------- ----- ------------------- --------- ------- ------------------------------------- --------------------- 
37     conv2d_30                   29    conv2d              41600     1664    I: conv2d_30_pad_before_output        (1,13,13,128) (131)   
                                                                               S: conv2d_30_scratch0                                       
                                                                               S: conv2d_30_scratch1                                       
                                                                               W: conv2d_30_weights                  (128,1,3,3) (70)      
                                                                               W: conv2d_30_bias                     (1,1,1,128) (71)      
                                                                               O: conv2d_30_output                   (1,6,6,128) (132)     
------ --------------------------- ----- ------------------- --------- ------- ------------------------------------- --------------------- 
38     conv2d_31                   31    conv2d              1179904   33792   I: conv2d_30_output                   (1,6,6,128) (132)     
                                                                               S: conv2d_31_scratch0                                       
                                                                               S: conv2d_31_scratch1                                       
                                                                               W: conv2d_31_weights                  (128,256,1,1) (72)    
                                                                               W: conv2d_31_bias                     (1,1,1,256) (73)      
                                                                               O: conv2d_31_output                   (1,6,6,256) (134)     
------ --------------------------- ----- ------------------- --------- ------- ------------------------------------- --------------------- 
39     conv2d_32_pad_before        32    pad                 0         0       I: conv2d_31_output                   (1,6,6,256) (134)     
                                                                               O: conv2d_32_pad_before_output        (1,8,8,256) (135)     
------ --------------------------- ----- ------------------- --------- ------- ------------------------------------- --------------------- 
40     conv2d_32                   32    conv2d              83200     3328    I: conv2d_32_pad_before_output        (1,8,8,256) (135)     
                                                                               S: conv2d_32_scratch0                                       
                                                                               S: conv2d_32_scratch1                                       
                                                                               W: conv2d_32_weights                  (256,1,3,3) (74)      
                                                                               W: conv2d_32_bias                     (1,1,1,256) (76)      
                                                                               O: conv2d_32_output                   (1,6,6,256) (137)     
------ --------------------------- ----- ------------------- --------- ------- ------------------------------------- --------------------- 
41     conv2d_33                   33    conv2d              2359552   66560   I: conv2d_32_output                   (1,6,6,256) (137)     
                                                                               S: conv2d_33_scratch0                                       
                                                                               S: conv2d_33_scratch1                                       
                                                                               W: conv2d_33_weights                  (256,256,1,1) (79)    
                                                                               W: conv2d_33_bias                     (1,1,1,256) (82)      
                                                                               O: conv2d_33_output                   (1,6,6,256) (138)     
------ --------------------------- ----- ------------------- --------- ------- ------------------------------------- --------------------- 
42     conv2d_35_pad_before        35    pad                 0         0       I: conv2d_33_output                   (1,6,6,256) (138)     
                                                                               O: conv2d_35_pad_before_output        (1,8,8,256) (140)     
------ --------------------------- ----- ------------------- --------- ------- ------------------------------------- --------------------- 
43     conv2d_35                   35    conv2d              20992     3328    I: conv2d_35_pad_before_output        (1,8,8,256) (140)     
                                                                               S: conv2d_35_scratch0                                       
                                                                               S: conv2d_35_scratch1                                       
                                                                               W: conv2d_35_weights                  (256,1,3,3) (85)      
                                                                               W: conv2d_35_bias                     (1,1,1,256) (88)      
                                                                               O: conv2d_35_output                   (1,3,3,256) (141)     
------ --------------------------- ----- ------------------- --------- ------- ------------------------------------- --------------------- 
44     conv2d_36                   36    conv2d              590080    66560   I: conv2d_35_output                   (1,3,3,256) (141)     
                                                                               S: conv2d_36_scratch0                                       
                                                                               S: conv2d_36_scratch1                                       
                                                                               W: conv2d_36_weights                  (256,256,1,1) (91)    
                                                                               W: conv2d_36_bias                     (1,1,1,256) (94)      
                                                                               O: conv2d_36_output                   (1,3,3,256) (143)     
------ --------------------------- ----- ------------------- --------- ------- ------------------------------------- --------------------- 
45     conv2d_37_pad_before        37    pad                 0         0       I: conv2d_36_output                   (1,3,3,256) (143)     
                                                                               O: conv2d_37_pad_before_output        (1,5,5,256) (144)     
------ --------------------------- ----- ------------------- --------- ------- ------------------------------------- --------------------- 
46     conv2d_37                   37    conv2d              20992     3328    I: conv2d_37_pad_before_output        (1,5,5,256) (144)     
                                                                               S: conv2d_37_scratch0                                       
                                                                               S: conv2d_37_scratch1                                       
                                                                               W: conv2d_37_weights                  (256,1,3,3) (97)      
                                                                               W: conv2d_37_bias                     (1,1,1,256) (100)     
                                                                               O: conv2d_37_output                   (1,3,3,256) (146)     
------ --------------------------- ----- ------------------- --------- ------- ------------------------------------- --------------------- 
47     conv2d_38                   38    conv2d              590080    66560   I: conv2d_37_output                   (1,3,3,256) (146)     
                                                                               S: conv2d_38_scratch0                                       
                                                                               S: conv2d_38_scratch1                                       
                                                                               W: conv2d_38_weights                  (256,256,1,1) (103)   
                                                                               W: conv2d_38_bias                     (1,1,1,256) (106)     
                                                                               O: conv2d_38_output                   (1,3,3,256) (147)     
------ --------------------------- ----- ------------------- --------- ------- ------------------------------------- --------------------- 
48     pool_40                     40    pool                2304      0       I: conv2d_38_output                   (1,3,3,256) (147)     
                                                                               O: pool_40_output                     (1,1,1,256) (149)     
------ --------------------------- ----- ------------------- --------- ------- ------------------------------------- --------------------- 
49     conv2d_45                   45    conv2d              8224      8320    I: pool_40_output                     (1,1,1,256) (149)     
                                                                               S: conv2d_45_scratch0                                       
                                                                               W: conv2d_45_weights                  (256,32,1,1) (109)    
                                                                               W: conv2d_45_bias                     (1,1,1,32) (112)      
                                                                               O: conv2d_45_output                   (1,1,1,32) (150)      
------ --------------------------- ----- ------------------- --------- ------- ------------------------------------- --------------------- 
50     conv2d_46_pad_before        46    pad                 0         0       I: conv2d_45_output                   (1,1,1,32) (150)      
                                                                               O: conv2d_46_pad_before_output        (1,3,3,32) (152)      
------ --------------------------- ----- ------------------- --------- ------- ------------------------------------- --------------------- 
51     conv2d_46                   46    conv2d              2890      2920    I: conv2d_46_pad_before_output        (1,3,3,32) (152)      
                                                                               S: conv2d_46_scratch0                                       
                                                                               W: conv2d_46_weights                  (32,10,3,3) (115)     
                                                                               W: conv2d_46_bias                     (1,1,1,10) (118)      
                                                                               O: conv2d_46_output                   (1,1,1,10) (153)      
------ --------------------------- ----- ------------------- --------- ------- ------------------------------------- --------------------- 
52     conv2d_51_pad_before        51    pad                 0         0       I: conv2d_45_output                   (1,1,1,32) (150)      
                                                                               O: conv2d_51_pad_before_output        (1,3,3,32) (155)      
------ --------------------------- ----- ------------------- --------- ------- ------------------------------------- --------------------- 
53     conv2d_51                   51    conv2d              5780      5840    I: conv2d_51_pad_before_output        (1,3,3,32) (155)      
                                                                               S: conv2d_51_scratch0                                       
                                                                               W: conv2d_51_weights                  (32,20,3,3) (121)     
                                                                               W: conv2d_51_bias                     (1,1,1,20) (124)      
                                                                               O: conv2d_51_output                   (1,1,1,20) (156)      
------ --------------------------- ----- ------------------- --------- ------- ------------------------------------- --------------------- 
54     tile_64                     64    tile                0         0       I: conv2d_45_output                   (1,1,1,32) (150)      
                                                                               O: tile_64_output                     (1,2,2,32) (158)      
------ --------------------------- ----- ------------------- --------- ------- ------------------------------------- --------------------- 
55     pad_65                      65    pad                 0         0       I: tile_64_output                     (1,2,2,32) (158)      
                                                                               O: pad_65_output                      (1,3,3,32) (159)      
------ --------------------------- ----- ------------------- --------- ------- ------------------------------------- --------------------- 
56     conv2d_39                   39    conv2d              73760     8320    I: conv2d_38_output                   (1,3,3,256) (147)     
                                                                               S: conv2d_39_scratch0                                       
                                                                               W: conv2d_39_weights                  (256,32,1,1) (127)    
                                                                               W: conv2d_39_bias                     (1,1,1,32) (130)      
                                                                               O: conv2d_39_output                   (1,3,3,32) (161)      
------ --------------------------- ----- ------------------- --------- ------- ------------------------------------- --------------------- 
57     eltwise_66                  66    eltwise_integer     288       0       I: conv2d_39_output                   (1,3,3,32) (161)      
                                                                               I: pad_65_output                      (1,3,3,32) (159)      
                                                                               O: eltwise_66_output                  (1,3,3,32) (162)      
------ --------------------------- ----- ------------------- --------- ------- ------------------------------------- --------------------- 
58     eltwise_66_0_conversion     66    converter           576       0       I: eltwise_66_output                  (1,3,3,32) (162)      
                                                                               O: eltwise_66_0_conversion_output     (1,3,3,32) (164)      
------ --------------------------- ----- ------------------- --------- ------- ------------------------------------- --------------------- 
59     upsample_85                 85    upsample            4608      0       I: eltwise_66_0_conversion_output     (1,3,3,32) (164)      
                                                                               O: upsample_85_output                 (1,6,6,32) (165)      
------ --------------------------- ----- ------------------- --------- ------- ------------------------------------- --------------------- 
60     upsample_85_0_conversion    85    converter           2304      0       I: upsample_85_output                 (1,6,6,32) (165)      
                                                                               O: upsample_85_0_conversion_output    (1,6,6,32) (167)      
------ --------------------------- ----- ------------------- --------- ------- ------------------------------------- --------------------- 
61     conv2d_67_pad_before        67    pad                 0         0       I: eltwise_66_output                  (1,3,3,32) (162)      
                                                                               O: conv2d_67_pad_before_output        (1,5,5,32) (168)      
------ --------------------------- ----- ------------------- --------- ------- ------------------------------------- --------------------- 
62     conv2d_67                   67    conv2d              51860     5840    I: conv2d_67_pad_before_output        (1,5,5,32) (168)      
                                                                               S: conv2d_67_scratch0                                       
                                                                               W: conv2d_67_weights                  (32,20,3,3) (133)     
                                                                               W: conv2d_67_bias                     (1,1,1,20) (136)      
                                                                               O: conv2d_67_output                   (1,3,3,20) (170)      
------ --------------------------- ----- ------------------- --------- ------- ------------------------------------- --------------------- 
63     conv2d_72_pad_before        72    pad                 0         0       I: eltwise_66_output                  (1,3,3,32) (162)      
                                                                               O: conv2d_72_pad_before_output        (1,5,5,32) (171)      
------ --------------------------- ----- ------------------- --------- ------- ------------------------------------- --------------------- 
64     conv2d_72                   72    conv2d              25930     2920    I: conv2d_72_pad_before_output        (1,5,5,32) (171)      
                                                                               S: conv2d_72_scratch0                                       
                                                                               W: conv2d_72_weights                  (32,10,3,3) (139)     
                                                                               W: conv2d_72_bias                     (1,1,1,10) (142)      
                                                                               O: conv2d_72_output                   (1,3,3,10) (173)      
------ --------------------------- ----- ------------------- --------- ------- ------------------------------------- --------------------- 
65     conv2d_34                   34    conv2d              294944    8320    I: conv2d_33_output                   (1,6,6,256) (138)     
                                                                               S: conv2d_34_scratch0                                       
                                                                               W: conv2d_34_weights                  (256,32,1,1) (145)    
                                                                               W: conv2d_34_bias                     (1,1,1,32) (148)      
                                                                               O: conv2d_34_output                   (1,6,6,32) (174)      
------ --------------------------- ----- ------------------- --------- ------- ------------------------------------- --------------------- 
66     eltwise_86                  86    eltwise_integer     1152      0       I: conv2d_34_output                   (1,6,6,32) (174)      
                                                                               I: upsample_85_0_conversion_output    (1,6,6,32) (167)      
                                                                               O: eltwise_86_output                  (1,6,6,32) (176)      
------ --------------------------- ----- ------------------- --------- ------- ------------------------------------- --------------------- 
67     eltwise_86_0_conversion     86    converter           2304      0       I: eltwise_86_output                  (1,6,6,32) (176)      
                                                                               O: eltwise_86_0_conversion_output     (1,6,6,32) (177)      
------ --------------------------- ----- ------------------- --------- ------- ------------------------------------- --------------------- 
68     upsample_105                105   upsample            18432     0       I: eltwise_86_0_conversion_output     (1,6,6,32) (177)      
                                                                               O: upsample_105_output                (1,12,12,32) (179)    
------ --------------------------- ----- ------------------- --------- ------- ------------------------------------- --------------------- 
69     upsample_105_0_conversion   105   converter           9216      0       I: upsample_105_output                (1,12,12,32) (179)    
                                                                               O: upsample_105_0_conversion_output   (1,12,12,32) (180)    
------ --------------------------- ----- ------------------- --------- ------- ------------------------------------- --------------------- 
70     conv2d_87_pad_before        87    pad                 0         0       I: eltwise_86_output                  (1,6,6,32) (176)      
                                                                               O: conv2d_87_pad_before_output        (1,8,8,32) (182)      
------ --------------------------- ----- ------------------- --------- ------- ------------------------------------- --------------------- 
71     conv2d_87                   87    conv2d              103690    2920    I: conv2d_87_pad_before_output        (1,8,8,32) (182)      
                                                                               S: conv2d_87_scratch0                                       
                                                                               W: conv2d_87_weights                  (32,10,3,3) (151)     
                                                                               W: conv2d_87_bias                     (1,1,1,10) (154)      
                                                                               O: conv2d_87_output                   (1,6,6,10) (183)      
------ --------------------------- ----- ------------------- --------- ------- ------------------------------------- --------------------- 
72     conv2d_92_pad_before        92    pad                 0         0       I: eltwise_86_output                  (1,6,6,32) (176)      
                                                                               O: conv2d_92_pad_before_output        (1,8,8,32) (185)      
------ --------------------------- ----- ------------------- --------- ------- ------------------------------------- --------------------- 
73     conv2d_92                   92    conv2d              207380    5840    I: conv2d_92_pad_before_output        (1,8,8,32) (185)      
                                                                               S: conv2d_92_scratch0                                       
                                                                               W: conv2d_92_weights                  (32,20,3,3) (157)     
                                                                               W: conv2d_92_bias                     (1,1,1,20) (160)      
                                                                               O: conv2d_92_output                   (1,6,6,20) (186)      
------ --------------------------- ----- ------------------- --------- ------- ------------------------------------- --------------------- 
74     conv2d_28                   28    conv2d              589856    4224    I: conv2d_27_output                   (1,12,12,128) (129)   
                                                                               S: conv2d_28_scratch0                                       
                                                                               W: conv2d_28_weights                  (128,32,1,1) (163)    
                                                                               W: conv2d_28_bias                     (1,1,1,32) (166)      
                                                                               O: conv2d_28_output                   (1,12,12,32) (188)    
------ --------------------------- ----- ------------------- --------- ------- ------------------------------------- --------------------- 
75     eltwise_106                 106   eltwise_integer     4608      0       I: conv2d_28_output                   (1,12,12,32) (188)    
                                                                               I: upsample_105_0_conversion_output   (1,12,12,32) (180)    
                                                                               O: eltwise_106_output                 (1,12,12,32) (189)    
------ --------------------------- ----- ------------------- --------- ------- ------------------------------------- --------------------- 
76     eltwise_106_0_conversion    106   converter           9216      0       I: eltwise_106_output                 (1,12,12,32) (189)    
                                                                               O: eltwise_106_0_conversion_output    (1,12,12,32) (191)    
------ --------------------------- ----- ------------------- --------- ------- ------------------------------------- --------------------- 
77     upsample_125                125   upsample            73728     0       I: eltwise_106_0_conversion_output    (1,12,12,32) (191)    
                                                                               O: upsample_125_output                (1,24,24,32) (192)    
------ --------------------------- ----- ------------------- --------- ------- ------------------------------------- --------------------- 
78     upsample_125_0_conversion   125   converter           36864     0       I: upsample_125_output                (1,24,24,32) (192)    
                                                                               O: upsample_125_0_conversion_output   (1,24,24,32) (194)    
------ --------------------------- ----- ------------------- --------- ------- ------------------------------------- --------------------- 
79     conv2d_107_pad_before       107   pad                 0         0       I: eltwise_106_output                 (1,12,12,32) (189)    
                                                                               O: conv2d_107_pad_before_output       (1,14,14,32) (195)    
------ --------------------------- ----- ------------------- --------- ------- ------------------------------------- --------------------- 
80     conv2d_107                  107   conv2d              414730    2920    I: conv2d_107_pad_before_output       (1,14,14,32) (195)    
                                                                               S: conv2d_107_scratch0                                      
                                                                               W: conv2d_107_weights                 (32,10,3,3) (169)     
                                                                               W: conv2d_107_bias                    (1,1,1,10) (172)      
                                                                               O: conv2d_107_output                  (1,12,12,10) (197)    
------ --------------------------- ----- ------------------- --------- ------- ------------------------------------- --------------------- 
81     conv2d_112_pad_before       112   pad                 0         0       I: eltwise_106_output                 (1,12,12,32) (189)    
                                                                               O: conv2d_112_pad_before_output       (1,14,14,32) (198)    
------ --------------------------- ----- ------------------- --------- ------- ------------------------------------- --------------------- 
82     conv2d_112                  112   conv2d              829460    5840    I: conv2d_112_pad_before_output       (1,14,14,32) (198)    
                                                                               S: conv2d_112_scratch0                                      
                                                                               W: conv2d_112_weights                 (32,20,3,3) (175)     
                                                                               W: conv2d_112_bias                    (1,1,1,20) (178)      
                                                                               O: conv2d_112_output                  (1,12,12,20) (200)    
------ --------------------------- ----- ------------------- --------- ------- ------------------------------------- --------------------- 
83     conv2d_14                   14    conv2d              1179680   2176    I: conv2d_13_output                   (1,24,24,64) (102)    
                                                                               S: conv2d_14_scratch0                                       
                                                                               W: conv2d_14_weights                  (64,32,1,1) (181)     
                                                                               W: conv2d_14_bias                     (1,1,1,32) (184)      
                                                                               O: conv2d_14_output                   (1,24,24,32) (201)    
------ --------------------------- ----- ------------------- --------- ------- ------------------------------------- --------------------- 
84     eltwise_126                 126   eltwise_integer     18432     0       I: conv2d_14_output                   (1,24,24,32) (201)    
                                                                               I: upsample_125_0_conversion_output   (1,24,24,32) (194)    
                                                                               O: eltwise_126_output                 (1,24,24,32) (203)    
------ --------------------------- ----- ------------------- --------- ------- ------------------------------------- --------------------- 
85     conv2d_127_pad_before       127   pad                 0         0       I: eltwise_126_output                 (1,24,24,32) (203)    
                                                                               O: conv2d_127_pad_before_output       (1,26,26,32) (204)    
------ --------------------------- ----- ------------------- --------- ------- ------------------------------------- --------------------- 
86     conv2d_127                  127   conv2d              1658890   2920    I: conv2d_127_pad_before_output       (1,26,26,32) (204)    
                                                                               S: conv2d_127_scratch0                                      
                                                                               W: conv2d_127_weights                 (32,10,3,3) (187)     
                                                                               W: conv2d_127_bias                    (1,1,1,10) (190)      
                                                                               O: conv2d_127_output                  (1,24,24,10) (206)    
------ --------------------------- ----- ------------------- --------- ------- ------------------------------------- --------------------- 
87     concat_132                  132   concat              0         0       I: conv2d_127_output0                 (1,2880,1,2) (206)    
                                                                               I: conv2d_107_output0                 (1,720,1,2) (197)     
                                                                               I: conv2d_87_output0                  (1,180,1,2) (183)     
                                                                               I: conv2d_72_output0                  (1,45,1,2) (173)      
                                                                               I: conv2d_46_output0                  (1,5,1,2) (153)       
                                                                               O: concat_132_output                  (1,3830,1,2) (207)    
------ --------------------------- ----- ------------------- --------- ------- ------------------------------------- --------------------- 
88     concat_132_0_conversion     132   converter           15320     0       I: concat_132_output                  (1,3830,1,2) (207)    
                                                                               O: concat_132_0_conversion_output     (1,3830,1,2) (209)    
------ --------------------------- ----- ------------------- --------- ------- ------------------------------------- --------------------- 
89     nl_133                      133   nl                  114900    0       I: concat_132_0_conversion_output     (1,3830,1,2) (209)    
                                                                               O: nl_133_output                      (1,3830,1,2) (210)    
------ --------------------------- ----- ------------------- --------- ------- ------------------------------------- --------------------- 
90     nl_133_0_conversion         133   converter           15320     0       I: nl_133_output                      (1,3830,1,2) (210)    
                                                                               O: nl_133_0_conversion_output         (1,3830,1,2) (212)    
------ --------------------------- ----- ------------------- --------- ------- ------------------------------------- --------------------- 
91     conv2d_135_pad_before       135   pad                 0         0       I: eltwise_126_output                 (1,24,24,32) (203)    
                                                                               O: conv2d_135_pad_before_output       (1,26,26,32) (213)    
------ --------------------------- ----- ------------------- --------- ------- ------------------------------------- --------------------- 
92     conv2d_135                  135   conv2d              3317780   5840    I: conv2d_135_pad_before_output       (1,26,26,32) (213)    
                                                                               S: conv2d_135_scratch0                                      
                                                                               W: conv2d_135_weights                 (32,20,3,3) (193)     
                                                                               W: conv2d_135_bias                    (1,1,1,20) (196)      
                                                                               O: conv2d_135_output                  (1,24,24,20) (215)    
------ --------------------------- ----- ------------------- --------- ------- ------------------------------------- --------------------- 
93     concat_140                  140   concat              0         0       I: conv2d_135_output0                 (1,2880,1,4) (215)    
                                                                               I: conv2d_112_output0                 (1,720,1,4) (200)     
                                                                               I: conv2d_92_output0                  (1,180,1,4) (186)     
                                                                               I: conv2d_67_output0                  (1,45,1,4) (170)      
                                                                               I: conv2d_51_output0                  (1,5,1,4) (156)       
                                                                               O: concat_140_output                  (1,3830,1,4) (216)    
------ --------------------------- ----- ------------------- --------- ------- ------------------------------------- --------------------- 
94     concat_150                  150   concat              0         0       I: nl_133_0_conversion_output         (1,3830,1,2) (212)    
                                                                               I: concat_140_output                  (1,3830,1,4) (216)    
                                                                               I: concat_149_output                  (1,3830,1,4) (75)     
                                                                               O: concat_150_output                  (1,3830,1,10) (218)   
------ --------------------------- ----- ------------------- --------- ------- ------------------------------------- --------------------- 
95     conversion_151              151   converter           76600     0       I: concat_150_output                  (1,3830,1,10) (218)   
                                                                               O: conversion_151_output              (1,3830,1,10) (219)   
------ --------------------------- ----- ------------------- --------- ------- ------------------------------------- --------------------- 



Number of operations per c-layer
------- ------ --------------------------------------- ------------ -------------- --------- ---------- 
c_id    m_id   name (type)                                      #op           type    #param   sparsity 
------- ------ --------------------------------------- ------------ -------------- --------- ---------- 
0       149    concat_149 (concat)                                0       op_s8_s8         0     0.0000 
1       0      conversion_0 (converter)                     221,184     smul_u8_s8           
2       1      conv2d_1 (optimized_conv2d)                1,990,664     smul_s8_s8       224     0.2455 
3       2      conv2d_2_pad_before (pad)                          0     smul_s8_s8           
4       2      conv2d_2 (conv2d)                            663,560     smul_s8_s8        80     0.0125 
5       3      conv2d_3 (conv2d)                          1,179,664     smul_s8_s8       144     0.2153 
6       5      conv2d_5_pad_before (pad)                          0     smul_s8_s8           
7       4      conv2d_5 (conv2d)                            331,792     smul_s8_s8       160     0.0062 
8       6      conv2d_6 (conv2d)                          1,179,680     smul_s8_s8       544     0.2243 
9       7      conv2d_7_pad_before (pad)                          0     smul_s8_s8           
10      7      conv2d_7 (conv2d)                            663,584     smul_s8_s8       320     0.0219 
11      8      conv2d_8 (conv2d)                          2,359,328     smul_s8_s8     1,056     0.1600 
12      10     conv2d_10_pad_before (pad)                         0     smul_s8_s8           
13      9      conv2d_10 (conv2d)                           165,920     smul_s8_s8       320     0.0031 
14      11     conv2d_11 (conv2d)                         1,179,712     smul_s8_s8     2,112     0.0407 
15      12     conv2d_12_pad_before (pad)                         0     smul_s8_s8           
16      12     conv2d_12 (conv2d)                           331,840     smul_s8_s8       640     0.0141 
17      13     conv2d_13 (conv2d)                         2,359,360     smul_s8_s8     4,160     0.0231 
18      16     conv2d_16_pad_before (pad)                         0     smul_s8_s8           
19      15     conv2d_16 (conv2d)                            83,008     smul_s8_s8       640     0.0000 
20      17     conv2d_17 (conv2d)                         1,179,776     smul_s8_s8     8,320     0.0190 
21      18     conv2d_18_pad_before (pad)                         0     smul_s8_s8           
22      18     conv2d_18 (conv2d)                           166,016     smul_s8_s8     1,280     0.0164 
23      19     conv2d_19 (conv2d)                         2,359,424     smul_s8_s8    16,512     0.0186 
24      20     conv2d_20_pad_before (pad)                         0     smul_s8_s8           
25      20     conv2d_20 (conv2d)                           166,016     smul_s8_s8     1,280     0.0094 
26      21     conv2d_21 (conv2d)                         2,359,424     smul_s8_s8    16,512     0.0159 
27      22     conv2d_22_pad_before (pad)                         0     smul_s8_s8           
28      22     conv2d_22 (conv2d)                           166,016     smul_s8_s8     1,280     0.0141 
29      23     conv2d_23 (conv2d)                         2,359,424     smul_s8_s8    16,512     0.0145 
30      24     conv2d_24_pad_before (pad)                         0     smul_s8_s8           
31      24     conv2d_24 (conv2d)                           166,016     smul_s8_s8     1,280     0.0188 
32      25     conv2d_25 (conv2d)                         2,359,424     smul_s8_s8    16,512     0.0128 
33      26     conv2d_26_pad_before (pad)                         0     smul_s8_s8           
34      26     conv2d_26 (conv2d)                           166,016     smul_s8_s8     1,280     0.0078 
35      27     conv2d_27 (conv2d)                         2,359,424     smul_s8_s8    16,512     0.0114 
36      30     conv2d_30_pad_before (pad)                         0     smul_s8_s8           
37      29     conv2d_30 (conv2d)                            41,600     smul_s8_s8     1,280     0.0000 
38      31     conv2d_31 (conv2d)                         1,179,904     smul_s8_s8    33,024     0.0113 
39      32     conv2d_32_pad_before (pad)                         0     smul_s8_s8           
40      32     conv2d_32 (conv2d)                            83,200     smul_s8_s8     2,560     0.0020 
41      33     conv2d_33 (conv2d)                         2,359,552     smul_s8_s8    65,792     0.0187 
42      35     conv2d_35_pad_before (pad)                         0     smul_s8_s8           
43      35     conv2d_35 (conv2d)                            20,992     smul_s8_s8     2,560     0.0094 
44      36     conv2d_36 (conv2d)                           590,080     smul_s8_s8    65,792     0.0636 
45      37     conv2d_37_pad_before (pad)                         0     smul_s8_s8           
46      37     conv2d_37 (conv2d)                            20,992     smul_s8_s8     2,560     0.0059 
47      38     conv2d_38 (conv2d)                           590,080     smul_s8_s8    65,792     0.2193 
48      40     pool_40 (pool)                                 2,304       op_s8_s8           
49      45     conv2d_45 (conv2d)                             8,224     smul_s8_s8     8,224     0.0113 
50      46     conv2d_46_pad_before (pad)                         0     smul_s8_s8           
51      46     conv2d_46 (conv2d)                             2,890     smul_s8_s8     2,890     0.8865 
52      51     conv2d_51_pad_before (pad)                         0     smul_s8_s8           
53      51     conv2d_51 (conv2d)                             5,780     smul_s8_s8     5,780     0.8858 
54      64     tile_64 (tile)                                     0     smul_s8_s8           
55      65     pad_65 (pad)                                       0     smul_s8_s8           
56      39     conv2d_39 (conv2d)                            73,760     smul_s8_s8     8,224     0.0091 
57      66     eltwise_66 (eltwise_integer)                     288     smul_s8_s8           
58      66     eltwise_66_0_conversion (converter)              576    smul_s8_f32           
59      85     upsample_85 (upsample)                         4,608   smul_f32_f32           
60      85     upsample_85_0_conversion (converter)           2,304    smul_f32_s8           
61      67     conv2d_67_pad_before (pad)                         0     smul_s8_s8           
62      67     conv2d_67 (conv2d)                            51,860     smul_s8_s8     5,780     0.0099 
63      72     conv2d_72_pad_before (pad)                         0     smul_s8_s8           
64      72     conv2d_72 (conv2d)                            25,930     smul_s8_s8     2,890     0.0163 
65      34     conv2d_34 (conv2d)                           294,944     smul_s8_s8     8,224     0.0108 
66      86     eltwise_86 (eltwise_integer)                   1,152     smul_s8_s8           
67      86     eltwise_86_0_conversion (converter)            2,304    smul_s8_f32           
68      105    upsample_105 (upsample)                       18,432   smul_f32_f32           
69      105    upsample_105_0_conversion (converter)          9,216    smul_f32_s8           
70      87     conv2d_87_pad_before (pad)                         0     smul_s8_s8           
71      87     conv2d_87 (conv2d)                           103,690     smul_s8_s8     2,890     0.0104 
72      92     conv2d_92_pad_before (pad)                         0     smul_s8_s8           
73      92     conv2d_92 (conv2d)                           207,380     smul_s8_s8     5,780     0.0104 
74      28     conv2d_28 (conv2d)                           589,856     smul_s8_s8     4,128     0.0136 
75      106    eltwise_106 (eltwise_integer)                  4,608     smul_s8_s8           
76      106    eltwise_106_0_conversion (converter)           9,216    smul_s8_f32           
77      125    upsample_125 (upsample)                       73,728   smul_f32_f32           
78      125    upsample_125_0_conversion (converter)         36,864    smul_f32_s8           
79      107    conv2d_107_pad_before (pad)                        0     smul_s8_s8           
80      107    conv2d_107 (conv2d)                          414,730     smul_s8_s8     2,890     0.0097 
81      112    conv2d_112_pad_before (pad)                        0     smul_s8_s8           
82      112    conv2d_112 (conv2d)                          829,460     smul_s8_s8     5,780     0.0074 
83      14     conv2d_14 (conv2d)                         1,179,680     smul_s8_s8     2,080     0.0111 
84      126    eltwise_126 (eltwise_integer)                 18,432     smul_s8_s8           
85      127    conv2d_127_pad_before (pad)                        0     smul_s8_s8           
86      127    conv2d_127 (conv2d)                        1,658,890     smul_s8_s8     2,890     0.0090 
87      132    concat_132 (concat)                                0       op_s8_s8           
88      132    concat_132_0_conversion (converter)           15,320    smul_s8_f32           
89      133    nl_133 (nl)                                  114,900     op_f32_f32           
90      133    nl_133_0_conversion (converter)               15,320    smul_f32_s8           
91      135    conv2d_135_pad_before (pad)                        0     smul_s8_s8           
92      135    conv2d_135 (conv2d)                        3,317,780     smul_s8_s8     5,780     0.0071 
93      140    concat_140 (concat)                                0       op_s8_s8           
94      150    concat_150 (concat)                                0       op_s8_s8           
95      151    conversion_151 (converter)                    76,600    smul_s8_f32           
------- ------ --------------------------------------- ------------ -------------- --------- ---------- 
total                                                    40,573,698                  421,270     0.0727 

Number of operation types
---------------- ------------ ----------- 
operation type              #           % 
---------------- ------------ ----------- 
op_s8_s8                2,304        0.0% 
smul_u8_s8            221,184        0.5% 
smul_s8_s8         39,970,822       98.5% 
smul_s8_f32           104,016        0.3% 
smul_f32_f32           96,768        0.2% 
smul_f32_s8            63,704        0.2% 
op_f32_f32            114,900        0.3% 

Complexity report (model)
------ -------------------------- ------------------------- ------------------------- ---------- 
m_id   name                       c_macc                    c_rom                     c_id       
------ -------------------------- ------------------------- ------------------------- ---------- 
0      serving_default_input_10   |                  0.5%   |                  0.0%   [1]        
1      conv2d_1                   |||||||||          4.9%   |                  0.1%   [2]        
2      conv2d_2                   ||||               1.6%   |                  0.0%   [3, 4]     
3      conv2d_3                   ||||||             2.9%   |                  0.0%   [5]        
4      pad_4                      ||                 0.8%   |                  0.0%   [7]        
5      conv2d_5                   |                  0.0%   |                  0.0%   [6]        
6      conv2d_6                   ||||||             2.9%   |                  0.1%   [8]        
7      conv2d_7                   ||||               1.6%   |                  0.1%   [9, 10]    
8      conv2d_8                   |||||||||||        5.8%   |                  0.3%   [11]       
9      pad_9                      |                  0.4%   |                  0.1%   [13]       
10     conv2d_10                  |                  0.0%   |                  0.0%   [12]       
11     conv2d_11                  ||||||             2.9%   |                  0.5%   [14]       
12     conv2d_12                  ||                 0.8%   |                  0.2%   [15, 16]   
13     conv2d_13                  |||||||||||        5.8%   |                  1.0%   [17]       
14     conv2d_14                  ||||||             2.9%   |                  0.5%   [83]       
15     pad_15                     |                  0.2%   |                  0.2%   [19]       
16     conv2d_16                  |                  0.0%   |                  0.0%   [18]       
17     conv2d_17                  ||||||             2.9%   ||                 1.9%   [20]       
18     conv2d_18                  |                  0.4%   |                  0.4%   [21, 22]   
19     conv2d_19                  |||||||||||        5.8%   ||||               3.8%   [23]       
20     conv2d_20                  |                  0.4%   |                  0.4%   [24, 25]   
21     conv2d_21                  |||||||||||        5.8%   ||||               3.8%   [26]       
22     conv2d_22                  |                  0.4%   |                  0.4%   [27, 28]   
23     conv2d_23                  |||||||||||        5.8%   ||||               3.8%   [29]       
24     conv2d_24                  |                  0.4%   |                  0.4%   [30, 31]   
25     conv2d_25                  |||||||||||        5.8%   ||||               3.8%   [32]       
26     conv2d_26                  |                  0.4%   |                  0.4%   [33, 34]   
27     conv2d_27                  |||||||||||        5.8%   ||||               3.8%   [35]       
28     conv2d_28                  |||                1.5%   |                  0.9%   [74]       
29     pad_29                     |                  0.1%   |                  0.4%   [37]       
30     conv2d_30                  |                  0.0%   |                  0.0%   [36]       
31     conv2d_31                  ||||||             2.9%   ||||||||           7.5%   [38]       
32     conv2d_32                  |                  0.2%   |                  0.7%   [39, 40]   
33     conv2d_33                  |||||||||||        5.8%   ||||||||||||||||  14.8%   [41]       
34     conv2d_34                  ||                 0.7%   ||                 1.9%   [65]       
35     conv2d_35                  |                  0.1%   |                  0.7%   [42, 43]   
36     conv2d_36                  |||                1.5%   ||||||||||||||||  14.8%   [44]       
37     conv2d_37                  |                  0.1%   |                  0.7%   [45, 46]   
38     conv2d_38                  |||                1.5%   ||||||||||||||||  14.8%   [47]       
39     conv2d_39                  |                  0.2%   ||                 1.9%   [56]       
40     pool_40                    |                  0.0%   |                  0.0%   [48]       
45     conv2d_45                  |                  0.0%   ||                 1.9%   [49]       
46     conv2d_46                  |                  0.0%   |                  0.7%   [50, 51]   
51     conv2d_51                  |                  0.0%   ||                 1.3%   [52, 53]   
64     tile_64                    |                  0.0%   |                  0.0%   [54]       
65     pad_65                     |                  0.0%   |                  0.0%   [55]       
66     eltwise_66                 |                  0.0%   |                  0.0%   [57, 58]   
67     conv2d_67                  |                  0.1%   ||                 1.3%   [61, 62]   
72     conv2d_72                  |                  0.1%   |                  0.7%   [63, 64]   
85     upsample_85                |                  0.0%   |                  0.0%   [59, 60]   
86     eltwise_86                 |                  0.0%   |                  0.0%   [66, 67]   
87     conv2d_87                  |                  0.3%   |                  0.7%   [70, 71]   
92     conv2d_92                  |                  0.5%   ||                 1.3%   [72, 73]   
105    upsample_105               |                  0.1%   |                  0.0%   [68, 69]   
106    eltwise_106                |                  0.0%   |                  0.0%   [75, 76]   
107    conv2d_107                 ||                 1.0%   |                  0.7%   [79, 80]   
112    conv2d_112                 ||||               2.0%   ||                 1.3%   [81, 82]   
125    upsample_125               |                  0.3%   |                  0.0%   [77, 78]   
126    eltwise_126                |                  0.0%   |                  0.0%   [84]       
127    conv2d_127                 ||||||||           4.1%   |                  0.7%   [85, 86]   
132    concat_132                 |                  0.0%   |                  0.0%   [87, 88]   
133    nl_133                     |                  0.3%   |                  0.0%   [89, 90]   
135    conv2d_135                 ||||||||||||||||   8.2%   ||                 1.3%   [91, 92]   
140    concat_140                 |                  0.0%   |                  0.0%   [93]       
149    concat_149                 |                  0.0%   ||||               3.4%   [0]        
150    concat_150                 |                  0.0%   |                  0.0%   [94]       
151    conversion_151             |                  0.2%   |                  0.0%   [95]       
------ -------------------------- ------------------------- ------------------------- ---------- 
macc=40,573,698 weights=448,800 act=200,292 ram_io=0

Generated files (7)
-------------------------------------------------------------------------- 
C:\Users\hubert\.stm32cubemx\network_output\face_detection_config.h        
C:\Users\hubert\.stm32cubemx\network_output\face_detection.h               
C:\Users\hubert\.stm32cubemx\network_output\face_detection.c               
C:\Users\hubert\.stm32cubemx\network_output\face_detection_data_params.h   
C:\Users\hubert\.stm32cubemx\network_output\face_detection_data_params.c   
C:\Users\hubert\.stm32cubemx\network_output\face_detection_data.h          
C:\Users\hubert\.stm32cubemx\network_output\face_detection_data.c          
